model.pth (torch, 455086 bytes, 28 tensors)

conv1.weight f4 [32, 7, 5]
00000000: 2bc9 693d 4e27 9fbd b630 8d3b e168 cfbd
00000010: a542 023e 1b4e 20be 9d47 df3d d7de dcbd
00000020: d9e5 acbd c184 9dbd bed6 10be 166f d43c
00000030: 3af6 e2bd 30f0 3c3d 1600 89bc e33e 553d
00000040: c19b b139 c54a ff3d 3313 f2bd 4aa7 5bbc
00000050: d732 c8bd 5cf6 2dbe e371 c9bc 75e3 f93d
00000060: 40df c43b ed3f de3d 2281 85bd a4a4 dcbd
00000070: e3cf a83d e827 e93d a86b 11be 8607 c33d
00000080: 28c5 b7bd dbfe edbd b533 01bd d57a e63d
00000090: 2c67 8dbd 407d dbbd b86c 5abd 2397 dd3d
000000a0: 3f30 363d c75c 28be 1483 28bd dff5 bc3c
000000b0: eadf 253e 607c 1c3e f4a6 a13d 6902 0f3e
000000c0: f8e1 173e 07ac d03d f518 79bd 7302 243e
000000d0: 6669 c43d 2f3c 6fbd 5379 0e3e 27ea 16be
000000e0: 3138 51bd 6c38 843d 8aec a2bd 8145 9e3d
000000f0: e7a4 fcbd 2448 ae3d ef95 313e ccca f9bd
00000100: 5989 73bb 6bfa c63d e168 f4bd 6607 2b3e
00000110: 289e d63c cc3e eebb 7d49 ebbc 97da d93d
00000120: a2ca b5bd 70de b63d 5af3 043e b484 1abd
00000130: 3da0 103e 02bf 6e3d ffd2 a83d ca65 0e3e
00000140: c347 203e 6e53 1cbe 9fb7 0d3e 2973 1e3d
00000150: ebce cc3d 41fc c73a 04ea d9bd f46f edbd
00000160: fa57 26be ca68 8f3b df59 593d 0292 e8bd
00000170: ef10 a63d c261 1cbe dbbb 233e 3e86 19bd
00000180: 19c5 ee3d e880 00be aa1a c8bd 6b1f fe3c
00000190: aae7 133e 4362 27bd 0ee4 c43d 24c7 933d
000001a0: 81ff 593b 5d1b ef3a 103a 77bc d01a ae3d
000001b0: 8f51 e03d 2373 043e 5617 fbbc be94 9b3c
000001c0: d65d 243e c069 313d a4b8 29be 9d84 82bd
000001d0: 7150 49bd 9597 983d 7e0c 843d 8911 9abd
000001e0: e8fd 10be 9219 463c 2e6a d93c 57ee ae3d
000001f0: e5f9 1e3e 4161 a0bd 4f4c 4e3a 6c48 663d
00000200: a479 083d 0e04 513d 02a9 12bc 41ba 2a3d
00000210: 411e f93d 060d cf3d c837 f8bd 20b7 cdbd
00000220: 0049 13bd d175 d33d 71a5 3d3d 1536 86bd
00000230: e4c9 e03d ebb7 9f3d 259d c73d f534 c2bd
00000240: beba 17be 6274 2c3d 61f6 6c3b d4f5 c53d
00000250: 80ea babd 9b24 25be f8f7 563d 9c91 0abe
00000260: b4b2 37bd 0608 05be d2e0 c2bd 047f 043d
00000270: 6e9a 0e3d 2db7 423c edef b5bd 7e83 143e
00000280: ed7f 753c cc6e 4c3d ede3 79bd e59b 99bd
00000290: dadd 10be 385b 2e3e 17fd 5d3d 1f86 20bc
000002a0: ce6b d9bd b72d 063e f38a 4d3d caad d63d
000002b0: 7b83 233e 0d77 25bc efcf 1cbe bfdd cabd
000002c0: 2ce8 023e 0141 1d3e 831e 1ebe 2977 0d3e
000002d0: 3480 28be 5c0a dc3d 4344 ac3d 03d7 09bb
000002e0: 8786 9d3c bebc 9bbd 96b1 73bd 8ca1 9bbc
000002f0: 2d1d e43b 2c6d ef3d 100b 3b3d d4a8 563d
00000300: b58c 123d cdea bb3d 3e91 833c 240c edbc
00000310: f472 b13d de49 e3bd e7fd 24be a23f 22be
00000320: 03c6 193c 8c5d 1cbd a8dc d73d d95f 203d
00000330: e04e bebd 662c d53d 32e9 663d db97 6f3d
00000340: 754c 60bc bc55 a93c 46d9 a23d 8b8a e53d
00000350: ecf3 433d f364 87bd 50a1 b1ba 84cd b73d
00000360: d327 973d d792 ddbd fae5 24be 8e69 07be
00000370: a92c 263e 51c2 1e3e 8829 e1bd 4c90 d3bd
00000380: 50e1 1abe 768e 143d 0cb4 81bd e949 6c3c
00000390: 551e 36be b6c7 a0bd fa7e c43c efff 843d
000003a0: f2d4 18be e7a7 893d ade0 86bd fb61 99bd
000003b0: 16ed a0bb fde2 113e 0cad e53d 6f61 193d
000003c0: fd30 0c3e 0221 093d a1d9 4a3d 02bd 12be
000003d0: 0bfd 333e 01d0 6cbd 4c6a 26be 90f2 ce3c
000003e0: a399 e83d e3fb 783c 7df5 e93d 909c 9b3c
000003f0: 9f9d 29be 25a7 073e 0d0b a2bd fbbc 603d
0.057076614 -0.07771169 0.0043087853 -0.10127426 0.12720735 -0.15654795 0.10902331 -0.10784691
-0.084422775 -0.076913364 -0.14144418 0.025931876 -0.1108212 0.0461275 -0.016723674 0.052061927
0.00033876117 0.12465433 -0.11820068 -0.013406584 -0.09775322 -0.1698851 -0.024590438 0.12201587
0.006008059 0.108520366 -0.06518771 -0.1077359 0.08242776 0.11384565 -0.14201224 0.09522919
-0.089731514 -0.116208754 -0.031543452 0.11253897 -0.06904444 -0.10717249 -0.05332634 0.10819843
0.044479605 -0.16441642 -0.04114063 0.02306646 0.16198698 0.1528182 0.07893172 0.13965763
0.14832294 0.101890616 -0.060814817 0.1601656 0.09590416 -0.058407005 0.13913469 -0.1473776
-0.05107898 0.06456074 -0.079552725 0.077281006 -0.1233614 0.085098535 0.17342351 -0.121968836
-0.0037160723 0.09715732 -0.119340666 0.16702041 0.026198462 -0.0072706696 -0.028721565 0.10637396
-0.0887654 0.08929145 0.12983456 -0.03772421 0.14123626 0.058287628 0.08243369 0.13906017
0.15652375 -0.15266201 0.13839577 0.038684044 0.10000404 0.0015257673 -0.10640338 -0.11593619
-0.16244498 0.0043765055 0.053064223 -0.11355974 0.081086986 -0.15271667 0.1598963 -0.03748154
0.11658687 -0.12549174 -0.09770711 0.03102084 0.14443842 -0.040865194 0.096138105 0.072157174
0.0033263864 0.0018242408 -0.015089527 0.08501208 0.10953056 0.12934546 -0.030650776 0.018991824
0.1605142 0.04331374 -0.16574341 -0.0637295 -0.04914898 0.07450787 0.06447695 -0.07522876
-0.14159358 0.012091057 0.026539888 0.085415535 0.15525015 -0.0783105 0.0007869647 0.05622141
0.03331913 0.051029257 -0.008951427 0.04168153 0.121639736 0.10109906 -0.121200144 -0.10044694
-0.03595829 0.10325206 0.046300355 -0.06553284 0.109760076 0.077987514 0.0974677 -0.09482757
-0.1481733 0.04210318 0.0036157595 0.096660286 -0.091267586 -0.16127245 0.052482575 -0.13532108
-0.04484816 -0.12991342 -0.09515537 0.032347694 0.034815244 0.011884493 -0.08883653 0.14503285
0.014984113 0.04991035 -0.061008383 -0.07500438 -0.1414713 0.17026985 0.054196443 -0.009797602
-0.10616265 0.13103376 0.05018134 0.104823664 0.15968125 -0.010099185 -0.15313695 -0.09905576
0.12783879 0.15356828 -0.15441327 0.13814987 -0.16455156 0.107441634 0.084114574 -0.0021032698
0.019229187 -0.07604359 -0.05949553 -0.01899793 0.006961486 0.11690745 0.045664847 0.0524071
0.03577872 0.09175644 0.016060468 -0.028936453 0.08664504 -0.110980734 -0.16112481 -0.15844586
0.009385589 -0.03817515 0.10540134 0.039153907 -0.09292388 0.10408859 0.056374736 0.05849443
-0.013690104 0.020670764 0.07951598 0.112080656 0.047840044 -0.066110514 -0.0013552103 0.08974746
0.07380643 -0.10819023 -0.16103354 -0.1322386 0.16227974 0.15503813 -0.109942496 -0.10330257
-0.15125012 0.036268674 -0.06333169 0.014421918 -0.17785008 -0.07850592 0.023986328 0.06494128
-0.14924982 0.06721478 -0.06585822 -0.074893914 -0.0049110753 0.14246745 0.11214647 0.037446436
0.13690563 0.033478744 0.049523953 -0.14329913 0.17576997 -0.057815555 -0.16251487 0.025262147
0.11357429 0.015196773 0.11423776 0.018995553 -0.16564034 0.13247354 -0.07912264 0.054867726

conv1.bias f4 [32]
00000000: ef4e f03d 6f2a 883c bc95 243c bbb0 abba
00000010: 2a82 e9bc 5cc1 d2bd 6431 853d 8a2e 3c3d
00000020: 5466 05be 549f 013e a641 87bd 0875 a9bd
00000030: 458c 9f3d 5077 2e3d 2b59 47bc f28b 273e
00000040: 75ba 2b3e 4e91 043e 3990 d43d db45 17be
00000050: 96af 3d3d 2b84 b4bd 502c 8ebd 4b4f e53d
00000060: 3997 fbbd 8bdb f63c ef25 e83d 91aa 49bd
00000070: 2e4a 883d 097f c2bb e051 3dbd 2122 3cbd
0.117338054 0.016621796 0.010045465 -0.0013098934 -0.02850445 -0.102907866 0.06503561 0.04594282
-0.13027316 0.12658435 -0.06604318 -0.08274275 0.07790426 0.042594254 -0.012167255 0.16361979
0.16770346 0.12946054 0.10379071 -0.14772741 0.04631003 -0.088142715 -0.06942046 0.111967646
-0.12284703 0.030133983 0.1133536 -0.04923493 0.06654774 -0.005935554 -0.04622066 -0.045930985

bn1.weight f4 [32]
00000000: 23cc 7e3f d0fa 803f af6d 803f bc01 7e3f
00000010: 40e0 803f 5984 803f 0f70 7c3f e8d2 803f
00000020: 86b1 803f 6ccf 7f3f 99b3 7d3f b6a7 7e3f
00000030: 4b68 803f ee26 7d3f a6b6 7e3f 587e 813f
00000040: 9697 803f 3477 803f 881d 7d3f 3953 803f
00000050: 8373 803f 80f9 7d3f 3f65 7d3f 7cbf 803f
00000060: d506 7f3f e728 803f 3788 813f 8051 7d3f
00000070: b934 813f e98e 7c3f ae6b 7d3f 7b6e 7f3f
0.9953024 1.0076542 1.0033473 0.99221396 1.0068436 1.0040389 0.9860849 1.0064363
1.0054176 0.99925876 0.9910217 0.99474657 1.0031828 0.98887527 0.9949745 1.0116682
1.004626 1.0036378 0.98873186 1.0025398 1.0035251 0.9920883 0.98982614 1.0058436
0.996198 1.0012482 1.0119694 0.98952484 1.0094215 0.98655564 0.9899243 0.99777955

bn1.bias f4 [32]
00000000: e60b b43b da02 373c 0e05 893b 40be 52bb
00000010: ed6d 703c acb0 e73b a473 a0bb 7d1e 3d3c
00000020: 9160 953a cc41 86bb 8d0b 7bbb b589 86bb
00000030: 3fa1 ad3a 5329 13bc 3bc8 1eb9 3f9f 353c
00000040: 6c96 9e3b f0f5 8f3a 1a6e c8bb d407 c43b
00000050: 1af0 a63b 8d62 5eb7 ea98 4bbc 1ab3 9a3b
00000060: f7b2 aa3b c0f9 793b b72f 593c 513f d3bb
00000070: bb57 033b c712 34bc a6bd f9bb 8b47 d9ba
0.0054945825 0.011170113 0.004181511 -0.0032156855 0.014674646 0.0070706215 -0.004896598 0.0115429135
0.0011396577 -0.004097199 -0.0038306445 -0.0041057714 0.0013246908 -0.00898202 -0.00015142646 0.0110853305
0.004839709 0.0010983329 -0.0061166408 0.0059823785 0.0050945403 -1.3255177e-05 -0.012426594 0.0047210576
0.0052093226 0.0038143247 0.013256005 -0.006446757 0.0020041305 -0.010990805 -0.007621485 -0.0016577108

bn1.running_mean f4 [32]
00000000: 1299 9fc1 801a a541 792c 0941 ecc2 0b42
00000010: dada d241 898c bc41 e135 dd41 c7a2 9c41
00000020: 8bd7 a240 d91a af40 7b25 ef40 23f9 01c2
00000030: 727a b03f 0a41 d741 48bd 8ac0 fc46 38c2
00000040: 6e2c 45c2 aede c5c1 0d33 c541 b31b dfc1
00000050: b947 3bc1 b73a 3a42 8deb 4ac1 8c8a 6041
00000060: 8e72 8c42 6773 0242 bca2 89c2 d54b 2fc1
00000070: bf7f a7c1 4a66 a440 0f92 a1c0 e522 8241
-19.949741 20.63794 8.573358 34.940353 26.356861 23.56862 27.651308 19.579481
5.0888114 5.4720273 7.4733253 -32.493298 1.3787367 26.906757 -4.3356056 -46.06932
-49.29339 -24.73373 24.649927 -27.888525 -11.70501 46.55734 -12.6825075 14.033825
70.22374 32.612698 -68.81784 -10.956014 -20.937376 5.1374865 -5.0490794 16.267038

bn1.running_var f4 [32]
00000000: c2f5 8644 8942 9b44 41e0 a145 fd32 1a45
00000010: 4d3c 3345 3f54 0a45 cc45 f845 961a 7144
00000020: 3317 0645 1c2f a944 9f7f 8c44 ccc5 4245
00000030: 744f 0d44 c7aa b344 7817 8044 44b9 7545
00000040: 9c2f cc45 e925 cc44 e387 7145 65c0 6f45
00000050: a689 8e44 2caf 7245 1a67 d244 dbf7 7d44
00000060: 6ae6 a946 41c6 1845 c71e f145 d6d2 4f45
00000070: d61b 9244 d9e1 7e44 db8c 2545 eef5 f145
1079.6799 1242.0792 5180.0317 2467.1868 2867.7688 2213.2654 7944.7246 964.4154
2145.45 1353.4722 1123.9882 3116.3623 565.24146 1437.3368 1024.7334 3931.579
6533.951 1633.1847 3864.493 3836.0247 1140.3015 3882.9482 1683.2219 1015.87274
21747.207 2444.3909 7715.847 3325.1772 1168.8699 1019.5289 2648.8035 7742.741

conv2.weight f4 [64, 32, 5]
00000000: 90b1 2abd c761 a2bc 372f ca3c 929a 3abd
00000010: 73cf 03bc cf20 17bd 16b2 32bd 645a 923d
00000020: ba23 623d 712c 7cbd a8b9 ecbc a1a3 8f3d
00000030: 2f48 f83b 204f 0c3d 39ea 503d 7db9 2b3d
00000040: 2337 83bb 0027 8dbd c746 5f3d 1b70 843d
00000050: 61e3 7dbd 8c00 d53c 5c2e 933c 1b1c 223d
00000060: 7156 253d 556b d63c f5d7 2f3d af07 123c
00000070: 2ac3 813d 803c eebc 22a6 13bd 711a 3e3d
00000080: 2b9d ccbc 36ef 46bc 2508 04bd cf93 c9bc
00000090: b611 2fbd 6927 35bc 4604 91bd 12db 2fbd
000000a0: 844d 26bd 5c35 b43a 18d7 67bb ffa4 f0bb
000000b0: 9ee5 513c 675b ec3c 6ae5 97bd 5da8 37bd
000000c0: a6a1 bfbc a5c6 a0bd 0583 1f3d 793e 363d
000000d0: 11b0 9fbb 3253 d5ba 615c 40bd 2e4b 8c3d
000000e0: cba7 b43c c9f3 4e3d 374a 943d 7210 3b3d
000000f0: c66a e63c bff4 3bbd ac6f d23b 43ef 373d
00000100: 0fdd aebc 21ea 8d3d a893 5e3d 1b0e 9c3d
00000110: 698c 73bd 583f 923d 60cc 703c 9c2a 85bd
00000120: 164a 723d ef7f 6ebd 4692 8fbd 222e 673d
00000130: f7dc 11bd 8565 8dbd e61d 91bd 2efd 023d
00000140: 420e bb39 cf04 aabd b77a c0bc 8177 4bbd
00000150: b73c c63c debc 103c 75ca 65bd c7f1 043b
00000160: e794 9abc 751a 523d 50f0 2b3c 58c8 943d
00000170: bef8 923d ec41 74bc 10c3 313d b7f1 13bd
00000180: 4761 59bc 088d 7fbd b040 553d b958 743d
00000190: 280f 383d 4373 f93c 0ac9 0bbd 067e 4fbd
000001a0: 8575 f23c 4b15 c43b df16 87bd 1462 1ebd
000001b0: 56a1 8f3c 6563 54bd c331 783d ddd4 e5bc
000001c0: 6bf7 8ebd b734 82bd ff06 813d ffda 803c
000001d0: 374a 18bd b2f0 6c3d 9e81 45bd 2ffc df3c
000001e0: d27e 78bd e416 6cbd f2fa 5cbd c89c 88bd
000001f0: f60b 96bd f552 893d 4440 57bd 33fb 7f3d
00000200: 47c3 953d 9033 3f3d a40d 2fbc 61a0 a2bd
00000210: 357f 3d3d 0d43 5c3d 3d71 70bd 7a8e 893d
00000220: c001 96bd 5ee4 08bd 8565 5ebd 071d 4cbd
00000230: 0666 a0bd e59f 80bd dbd0 d23c 65bf a43d
00000240: 83f8 223c dccf 353d 1056 c43c 25e0 983c
00000250: 81ee 23bd 5853 51bd 4d89 0ab9 1a90 dcbb
00000260: 1cca 103d b3ae 4f3d caa4 73bd 7f4b 81bd
00000270: 5b04 a0bd 7e4b 96bd fbdb 843d 5a89 85bd
00000280: bdff 96bb 874c 8cbd 060f df3c 3a87 adbd
00000290: 789b 9fbd c802 87bc f516 e6bc 3180 8cba
000002a0: fe8a 7dbd 4dbd c739 ba5b 8b3b 8859 15bc
000002b0: a887 ff3b dda8 933c f613 babb 6c37 813d
000002c0: afe4 5e3c eb85 dc3c 0528 933d 9f58 6dbd
000002d0: c601 4dbd de5b 9b3d f9c5 773d 6fc8 4b3b
000002e0: b85b 553d 69bf 123d 46b9 32bd b236 7e3d
000002f0: 0cc5 693d 2eb2 3cbd 87df 923c 36a4 76ba
00000300: 55f6 bdbc 456b 92bd ff38 ef3c 3f81 923d
00000310: 219a b13d cf9d 4b3d b86a 72bd e08c 15bd
00000320: 7ebb 4e3d f887 893c 3963 9cbd 8262 adbc
00000330: 4a5c bfbb 79fa 983d 1175 4fbc 8c20 963b
00000340: 5966 893d bd76 933c 2082 cbbc a85b c53c
00000350: 57c6 043d 90f8 f3bc b9c6 763d 5595 0abc
00000360: 1c67 8f3d bad3 5f3d 4512 703c 15b7 98bd
00000370: 1fc2 473c a3c5 14bc b6bc 52bd c434 77bd
00000380: bdce 0a3d 4fef 243d 18dc 83bd 684a 30bd
00000390: 68e0 ddbb 285c 0b3d 4b9a ea3c 0f97 3e3b
000003a0: 1e3b 89bd eb8d 81bd d582 753d e41a 163d
000003b0: 2710 a1bd e563 4d3d a111 73bc d98e 81bd
000003c0: 678b 663d ae47 83bd 745b cebc 2f6a 733a
000003d0: f96f 9dbc 1768 0e3d ca9d b1bd 3fed adbb
000003e0: 2c8b 403d 9411 df3c 5a51 8a3d d3f8 95bc
000003f0: 6c50 92bd a8b1 9b3d 429e 923c 4cb0 743c
-0.041673243 -0.019822014 0.024680717 -0.045557566 -0.008045065 -0.036896523 -0.043626867 0.07146147
0.055209853 -0.06156582 -0.028897122 0.070136316 0.0075769643 0.034255147 0.051004622 0.041924942
-0.0040043755 -0.06892204 0.054510858 0.06466695 -0.061984424 0.026001237 0.017966442 0.039577585
0.04036564 0.026174227 0.042930562 0.008912965 0.06336053 -0.029081583 -0.03604711 0.046411935
-0.024977287 -0.012141993 -0.03223433 -0.024606613 -0.0427415 -0.011056759 -0.07080893 -0.04293353
-0.04060127 0.0013748812 -0.0035376009 -0.007343888 0.012811093 0.028852178 -0.07416804 -0.044838298
-0.02339251 -0.078503884 0.03894331 0.044493172 -0.0048732837 -0.0016275404 -0.0469631 0.06850277
0.022052666 0.05052546 0.07240718 0.04566998 0.028127085 -0.045887705 0.0064220037 0.044905912
-0.021345643 0.06929422 0.054340035 0.07619878 -0.059460077 0.07140988 0.014697164 -0.06502268
0.059152685 -0.058227476 -0.07010321 0.05644048 -0.03561112 -0.06904129 -0.07085781 0.031979732
0.00035678042 -0.083016984 -0.023496015 -0.049674515 0.024198873 0.008834092 -0.05610128 0.0020285712
-0.01886983 0.051294763 0.010494307 0.07264775 0.0717635 -0.014908295 0.043398917 -0.03611919
-0.013267822 -0.062390357 0.052063644 0.059654925 0.04493633 0.030450469 -0.034127273 -0.050657295
0.029597053 0.0059839836 -0.06596159 -0.038667753 0.017532986 -0.051852603 0.06059433 -0.028055603
-0.06980785 -0.06357711 0.063001625 0.015729425 -0.03718015 0.057846732 -0.048219316 0.02734193
-0.06066782 -0.057639018 -0.053950258 -0.06670529 -0.073265 0.06705276 -0.052551523 0.06249542
0.07312637 0.046680033 -0.0106844045 -0.07940746 0.046263892 0.053774882 -0.058701742 0.067166284
-0.073245525 -0.033420913 -0.054296035 -0.04983237 -0.078319594 -0.062804975 0.025734356 0.08044318
0.009946945 0.044387683 0.023966819 0.018661568 -0.040022377 -0.051104873 -0.00013211854 -0.0067310454
0.035348997 0.050703716 -0.059483327 -0.06313228 -0.07813331 -0.07338618 0.064872704 -0.06520338
-0.004608123 -0.06850534 0.027228843 -0.08473058 -0.07793325 -0.016480818 -0.028087119 -0.0010719356
-0.06190013 0.00038097278 0.004252878 -0.009115584 0.007798154 0.018024856 -0.005678649 0.06309399
0.013604327 0.026919326 0.071853675 -0.057945844 -0.05005052 0.07585882 0.060491536 0.003109481
0.052089423 0.035827074 -0.04363372 0.06206388 0.057072684 -0.046068363 0.017928852 -0.00094086246
-0.02318875 -0.07149366 0.029201983 0.07153558 0.08671976 0.049711045 -0.059183806 -0.036511302
0.050471775 0.016788468 -0.07636113 -0.021165136 -0.005839859 0.07469649 -0.012662188 0.0045815166
0.067089744 0.018000955 -0.024842322 0.024091557 0.032415714 -0.02978161 0.06024811 -0.008458455
0.070020884 0.054645278 0.014652793 -0.07456795 0.012192278 -0.009080323 -0.0514495 -0.060353056
0.033888567 0.040267285 -0.06438464 -0.04303971 -0.006771136 0.034023434 0.028638026 0.0029081737
-0.06700729 -0.06325897 0.059939224 0.03664674 -0.07864409 0.050144095 -0.014835746 -0.06326074
0.05628529 -0.06410156 -0.025190093 0.0009285537 -0.019218432 0.034767237 -0.08672674 -0.005307823
0.047007725 0.027230062 0.06753798 -0.018307125 -0.071442455 0.076022446 0.017897729 0.014934611

conv2.bias f4 [64]
00000000: 82f8 713a 93e2 9fbd 1b57 a33b bb95 03bc
00000010: e1bc 53bd b875 533d 8478 31bd b478 ec3c
00000020: 28d5 a03d f8d0 50bc ce16 4fbd 27c3 21bd
00000030: ee46 27bd c535 3ebd 246c d5bc 5e93 9c3d
00000040: 71e1 4dbd 80cc 873d 1917 1abd 9d75 2f3d
00000050: e94b 4ebd c678 403d 6fd1 223b db6a 15bc
00000060: fc99 253c c65e 3abd 466d 623d 9502 96bc
00000070: 40e6 9e3d 9edf 343c e61d 443d fa18 ecbc
00000080: 14e2 ae3b 824c 86bd f350 3bbd 4647 15bd
00000090: 2e30 643d 3e32 f43c dc17 f23c 2480 9fbd
000000a0: d526 ccbc 0303 9ebd 4c4a aabc b5b5 da3c
000000b0: 353f 803d c9d1 293d 7f67 693d 5b1c 1cbd
000000c0: fcd4 403d 6e4e 68bd 37e1 613b 6c56 a33c
000000d0: f2c1 913c a361 7fbd 05ba ee3c 9cf3 a03d
000000e0: 5f10 fdbc e432 c33c 25a7 893d 3c05 9f3d
000000f0: c48e 723d bc6c 1a3c f110 8cbc 2138 afbc
0.0009230451 -0.078068875 0.004984749 -0.008031304 -0.0516938 0.051625937 -0.043327823 0.02886615
0.07853156 -0.0127451345 -0.050558858 -0.039492752 -0.04083913 -0.046437997 -0.026052542 0.076452956
-0.050263826 0.06630802 -0.037619684 0.042836774 -0.050365362 0.04699018 0.002484407 -0.009119715
0.0101075135 -0.04550054 0.055279993 -0.018311778 0.077587605 0.011039643 0.047880076 -0.028820504
0.005337009 -0.065575615 -0.045731496 -0.036444925 0.05571001 0.029809114 0.029552393 -0.07788113
-0.02492086 -0.07715418 -0.02078738 0.026697973 0.06262056 0.041459832 0.056983467 -0.03811298
0.047078118 -0.05671542 0.0034466514 0.01993867 0.017792676 -0.062348973 0.029141435 0.07858965
-0.030891595 0.023827977 0.067213334 0.0776467 0.059218183 0.009425338 -0.017097922 -0.021389069

bn2.weight f4 [64]
00000000: d8fa 7e3f c7fc 7c3f 7fa6 7d3f 8e19 803f
00000010: aa4b 813f dacc 7e3f ee3d 813f 5622 7e3f
00000020: 35d3 813f 5ab6 813f 9e4a 803f e54f 7f3f
00000030: eec5 813f 3126 803f a8a2 7d3f 5640 7e3f
00000040: a210 7e3f c676 7e3f b990 813f b10f 803f
00000050: 7756 7c3f 1177 7e3f cf91 7f3f 0116 813f
00000060: cb20 803f 2463 803f b1df 803f 7711 813f
00000070: 3d0f 803f cec8 7f3f cbf8 803f f630 7e3f
00000080: 3e17 813f db8e 7f3f 08a4 803f 5c45 7e3f
00000090: 1a4e 813f d052 7d3f acf9 7c3f 561b 7e3f
000000a0: 3ec5 7b3f 0ec7 7d3f 2226 7d3f 7a61 7e3f
000000b0: 6700 813f 0626 7f3f f545 7d3f 0726 813f
000000c0: c88a 813f ebb9 813f fcfc 7f3f de8d 803f
000000d0: b28e 803f 1f7e 7e3f 0506 7d3f 886c 7d3f
000000e0: 914c 7b3f 3f33 7d3f 21ce 7f3f 3ce3 803f
000000f0: cdd5 803f d7f1 7d3f 8012 7f3f 21e3 803f
0.9960151 0.9882321 0.9908218 1.0007799 1.0101216 0.9953133 1.0097024 0.9927114
1.014258 1.0133774 1.0022771 0.99731284 1.0138528 1.0011655 0.9907632 0.9931692
0.9924413 0.99399984 1.0122291 1.0004789 0.98569435 0.9940043 0.9983186 1.008484
1.0010008 1.0030255 1.0068265 1.0083455 1.000465 0.9991578 1.0075926 0.9929346
1.0085218 0.99827355 1.0050058 0.99324584 1.010196 0.98954487 0.9881847 0.9926046
0.9834784 0.9913186 0.9888631 0.9936749 1.0078248 0.99667394 0.9893487 1.008973
1.0120478 1.0134863 0.999954 1.0043294 1.0043547 0.99411196 0.9883731 0.9899373
0.98163706 0.9890632 0.999239 1.0069346 1.0065247 0.99197143 0.99637604 1.0069314

bn2.bias f4 [64]
00000000: 776f ae3a 6976 7fbb 59fd 0cbc 3036 0b3c
00000010: 11e6 633c cfb9 fe3b c99e 6b3c 771e 8abb
00000020: 678d 7a3c 1151 763c 706b 263c 98da f83a
00000030: 8cf0 4a3c 67d9 a73b 9a1a 87bc ee3c 06bc
00000040: c2fb 4cb8 2a16 4db8 d85d 773c 2917 3ebc
00000050: c719 19bb 948d cd3b 0df7 14bb 1626 223c
00000060: fb38 69bc f3b5 06b9 e395 0e3c 07c7 3d3c
00000070: 4bd0 853b 693b ae3b 97e0 0b3c 37db 85bb
00000080: 496c 253c 4ae7 223c 0de9 433c 3b7a 47bb
00000090: e93a 473c 0dd2 1e3a 12bc b9bb 82ed ff3b
000000a0: 71dc 7abc 6385 04bc bf8f ed3b b7e2 0ebb
000000b0: 3079 ce3b 61cf 07bb 3786 1abb 2598 873c
000000c0: fc12 153c fe38 5e3c e917 273c 4128 02bc
000000d0: c8fb bb3a 5846 8cbb 63f6 60bc caef 07bc
000000e0: b3d9 09bc 1eef f6bb 2c7f b03b 84e5 1f3c
000000f0: 7669 b23b a903 d1bb 5b5b 7a39 a6cb 953c
0.0013308366 -0.003898049 -0.008605325 0.008496806 0.013909833 0.007773615 0.014381119 -0.0042150575
0.015292502 0.015033976 0.010157451 0.0018986044 0.012386452 0.005122352 -0.016492177 -0.008193238
-4.8871858e-05 -4.889645e-05 0.015098058 -0.0116022015 -0.0023361312 0.006272981 -0.0022730262 0.009896776
-0.014234777 -0.00012847017 0.008702728 0.011583096 0.0040836683 0.005317141 0.008537433 -0.0040849703
0.010096618 0.009942839 0.011957419 -0.0030437845 0.012160041 0.00060585217 -0.0056681717 0.0078102956
-0.015311346 -0.0080884425 0.007249802 -0.0021802613 0.006301068 -0.0020722973 -0.0023578533 0.01655204
0.0090987645 0.013563393 0.010198572 -0.007944168 0.0014342004 -0.0042808466 -0.013730618 -0.008296916
-0.00841372 -0.007535829 0.005386254 0.009759311 0.005444701 -0.00637861 0.0002387589 0.018285584

bn2.running_mean f4 [64]
00000000: dd29 b6bd 12d1 173e cebe 8a3c 3ee0 8cbd
00000010: 2141 82bd 7cc5 da3d bbc8 73bc 1a1c 353e
00000020: 34d7 f8bc 1b24 7f3e 4895 15bf aef6 a6bd
00000030: f1c2 363c 5c5c b43e 5f9f e5bd 4287 633e
00000040: c3ce 69be ede0 d3be af45 66bd 6eb7 c43d
00000050: 4e23 cebe da18 d8bc 5d66 ac3c 6780 04be
00000060: c515 293c b732 bf3d 21bd a53e 7b37 b73a
00000070: 40ca c1bd 4dbe cb3c d78c 29be d989 1dbe
00000080: e8c2 253e b7ac 953e edf4 45be abb0 3a3e
00000090: c595 91be 3abc debd 26f3 583d 6590 d6be
000000a0: cceb c43e 4ea0 86bd c24c 3fbe f029 a9bd
000000b0: 316a ad3e 4128 813d 710b 62be 68ce fa3c
000000c0: 1c85 a93e 11bc 49be 2327 8bbe 4f5c ccbd
000000d0: d07e 223e 73b7 14bc 1a5d 993d b136 623e
000000e0: 4a2a d33e 2e61 293e 8b80 e53d c6f0 d43e
000000f0: 18cd f9bd 9524 c6be 88a8 6ebd 3fe1 5e3e
-0.088947035 0.14825848 0.016936686 -0.06878708 -0.063600786 0.106821984 -0.014879401 0.17686501
-0.030376054 0.24916117 -0.5843091 -0.08152519 0.011154876 0.35226715 -0.11212038 0.22219566
-0.2283278 -0.41382542 -0.0562188 0.09605299 -0.4026131 -0.026379038 0.021044904 -0.12939607
0.010320132 0.09335845 0.32370856 0.0013978326 -0.09462404 0.024871016 -0.16557632 -0.15384616
0.16187632 0.29233333 -0.19331713 0.18231456 -0.28434578 -0.10875745 0.05296626 -0.4190704
0.3846115 -0.065735444 -0.18681625 -0.08259952 0.3387008 0.06306506 -0.22074677 0.030616
0.33109367 -0.19700648 -0.27178296 -0.09978544 0.15868688 -0.009076941 0.07488461 0.22091176
0.41243201 0.16540977 0.11206158 0.41589946 -0.12197322 -0.38699785 -0.058266193 0.21765612

bn2.running_var f4 [64]
00000000: 078c 1a3f 4724 773e 41d8 543e 949e 823e
00000010: cbae 523e c7f7 833e 005d e43e 20ef f53d
00000020: bf4f 9a3e a742 843e c9e6 a13e 1bc4 973e
00000030: 9cce 0b3e 51fe 8a3e ec0e e03e 023d 3e3e
00000040: 2437 e73e b52c 273f 5754 ce3e 0f96 8d3e
00000050: 14df e73e b159 dd3e 2170 a33e 2d9b b93e
00000060: 9e1e 1b3e 341e 433e ec30 203f 5bfa a13e
00000070: b1b7 553e 88f2 3f3e 26d8 d73e 08a1 e83e
00000080: 6601 553e c471 953e 5163 1f3e b137 113e
00000090: 6e5e a03e 2491 863e 510b 853d 27f2 8c3e
000000a0: 1423 ca3e 3e50 233e e39f 4a3e d68b 6a3e
000000b0: ab14 f13d 3c47 163e 9b95 d93e 7711 ad3e
000000c0: 1ea7 303e 33b6 663e d233 033f 336b 223e
000000d0: 469e 203e e5e6 633e 56f3 9c3e a53f 493e
000000e0: 0bf9 6b3e 2995 be3e 5218 7e3e 9aad c83e
000000f0: 9f44 9e3e e0f5 803e 6d59 183e 7f97 7c3e
0.60369915 0.24134932 0.2078562 0.2551161 0.2057449 0.25774977 0.44602203 0.120085
0.30138966 0.25832102 0.31621388 0.29641804 0.13653034 0.27147153 0.43761384 0.1857796
0.45159256 0.6530259 0.4029872 0.27653548 0.45287383 0.43232492 0.31921485 0.36251202
0.15148398 0.1905449 0.6257465 0.3163632 0.20870854 0.18744862 0.42157096 0.45435357
0.20801315 0.2918836 0.1556523 0.14181401 0.31322044 0.26282609 0.06496299 0.27528498
0.39479887 0.15948579 0.19787554 0.22904906 0.1177152 0.14675611 0.42496952 0.33802387
0.1725125 0.22530441 0.51250947 0.15861206 0.15685377 0.22256048 0.306544 0.19653185
0.23044221 0.37223175 0.24813965 0.39194947 0.3091173 0.25187588 0.14877863 0.24667166

conv3.weight f4 [128, 64, 5]
00000000: 1b7d 18bd b013 c8ba ed52 cebc 47cd e43b
00000010: 5b9b d3bc 0dfc 2e3d 7526 24bd ba6a 313d
00000020: ada6 c03c b69d 8dbc f487 9f3c f45d 55bd
00000030: 71ec 0a3d 53c2 7abc bcf4 fb3c 9f65 04bd
00000040: d815 03bc f4b8 80bb 7bfd c8bc 6375 6c3d
00000050: c060 31bd 475c ab3c 1f39 033c 39a9 753c
00000060: 9868 a83a 9168 b83b 61a3 f43c 40f4 9ebc
00000070: e4b6 1f3d 8c6a 1f3d 719e efbc 9de2 0f3d
00000080: 7417 b4bb c2b8 c4bb 9fbf e6bc a35b 1bbd
00000090: fcca 48bd d8fe c5bb f0bf 033d 98c4 13bd
000000a0: 2ab9 21bd f57a b63c 33b0 d7bc 9b4a 9e3c
000000b0: e49f 2d3d 0cea 43bd be40 d6bc 23d9 a23c
000000c0: 01a7 dbbb da5c 85bd 474d ab3c d21c bd3c
000000d0: e902 97bc e824 993c d1a7 78bc d479 033d
000000e0: 5073 84bc 7a1d 0c3d 2ca6 88bc 8b7a 2bbd
000000f0: f767 dcbc b84f 1abc b98c febc 422a 28bc
00000100: d09b 5f3c 1468 07bd c5b9 46bd 83e2 a53c
00000110: 6e54 cd3c a0aa c8ba 1340 22bd 2e19 32bd
00000120: c967 2dbd 37d5 6dbd fe86 41bd ad3a 64bd
00000130: 0271 42ba fbb6 8dbb 7281 ff3c 3aaf 19bd
00000140: 4429 293d 6ee1 b0bc b3b4 fd3c f0fc 95bc
00000150: 5214 b1bc dea1 01bc 91b0 7dbc ffb5 043d
00000160: 1c02 163d b720 123c d1fb aebc 23b4 b5bc
00000170: c588 48bc d592 7b3c 710d 41bd e735 1dbb
00000180: 390f 0dbd 09e8 11bd e760 3bbd e9ee 273b
00000190: 8675 b3bc f94c a2bc 0dc0 733b 2e83 ef3c
000001a0: 319e 19bd 0b81 3c3d 0d0e 35bd 6e88 e03c
000001b0: 51cc adba 099a 8fbc 0221 ffbc 5ad0 2b3c
000001c0: 8c05 b13c c55d 573d 72f0 f1bc 220c 1f3d
000001d0: bf4a e1bc 3952 353d 35d8 bbbc a5be 703d
000001e0: 1f23 23bd f169 40bd e64c 89b9 259f b5ba
000001f0: 2671 323c 30b8 43bc 5f1c 563b 6e78 4e3a
00000200: bfbe febc 7660 b8bb 5175 13bd 547a 213d
00000210: 820d 29bd 3b43 8dbc 76e7 82bd 6566 10bd
00000220: 4cb0 3dbd f7f0 e33c 7a3c d3ba d14c 54bd
00000230: a8d5 5fbd b003 8f3c a3c8 173d ccce c5bc
00000240: e8f4 213d e1b1 22bd a78b 81bc 9af9 543c
00000250: c1b2 d0bc 92a8 39bd c2e0 4bbc 0595 cd3b
00000260: aea3 b6ba 720f bcbb f1ce 093c d044 3dbd
00000270: 00b6 3ebd 3670 42bd ae0f 163d a82f 253d
00000280: ba83 5cbd a167 5c3c 7d7d 153c 31c8 df3b
00000290: 6b74 cd3a e08e e6bc 2ea4 fcbc 7954 6dbd
000002a0: efb7 e5bc a19d a4bc 2e8e 193c 37a6 07bd
000002b0: bf52 74bd 71ae 47bd 14f8 00bc 703f 2b3d
000002c0: 6be7 283d cc83 1bbd 9053 2cbd d61b 013d
000002d0: 210b 3d3d 3b3c 1b3c 67a8 0d3d be58 2dbd
000002e0: fdf5 35bd 50a9 6bbd 5251 d13b b7f5 223d
000002f0: 0ef5 f23c c191 963c 6f58 933c f940 883c
00000300: 3127 afbb 3a36 7ebd 30ff 6cbd 7cad 9cbc
00000310: ef85 42bd 716d 4bbd f829 fcbc 6583 a4bc
00000320: 0bbd eabc 55a1 c43a b843 193c 5c43 a5bc
00000330: 71d3 00bd 0c0d b43c 873c a43c 1031 fe3b
00000340: f55c b3bc 9bd0 3bbd a108 ae3c 6509 2c3a
00000350: ed13 ebbb b644 27bd fec7 d93b 34e2 aebc
00000360: cae9 8dbb d02a d9bc dce3 e7bc df7f fd3c
00000370: d149 143d fb02 5dbc 2a8d f93c 0ff7 e03c
00000380: 8f30 eebc 8377 373d df1d 7bbc 2f42 89bd
00000390: 4625 78bd 8c2d 6dbd bf2d a1bc 9721 51bc
000003a0: 8f6e 57bd 6905 61bd c782 82bc ea91 493b
000003b0: 7107 093d 1a6d 5bbd eb92 343d 52d7 20bc
000003c0: 517e 23bc 689d 50bd 49bc 54bd 30ed 18bc
000003d0: 0696 49bc ef45 103d feae 7cbb f3f5 5dbd
000003e0: 612d e03c 0cae b2ba 94c9 4139 caf3 0b3c
000003f0: c571 b53c d318 3c3d a325 80bc 9ed7 04bd
-0.037228685 -0.0015264656 -0.025186026 0.006982479 -0.025830915 0.042720843 -0.040075738 0.043314673
0.023516977 -0.017287116 0.019474007 -0.052091554 0.033916894 -0.01530512 0.030756347 -0.032323476
-0.008000813 -0.003928298 -0.024534931 0.057729136 -0.04330516 0.020918025 0.008009224 0.014993959
0.0012848554 0.0056276997 0.029863061 -0.019403577 0.038992777 0.03891997 -0.029250355 0.035128225
-0.00549596 -0.00600347 -0.028167544 -0.03792919 -0.049021706 -0.0060423426 0.032165468 -0.03607616
-0.039483227 0.022275427 -0.026329136 0.019322684 0.04238881 -0.047830626 -0.026153918 0.01987893
-0.006703258 -0.06511851 0.020910872 0.023085032 -0.018434005 0.018694356 -0.015176729 0.032098606
-0.016168267 0.0342078 -0.0166808 -0.041864913 -0.026905043 -0.0094184205 -0.031072961 -0.010263981
0.013647988 -0.03305824 -0.048517007 0.02024961 0.025064673 -0.0015309639 -0.039611887 -0.043481044
-0.042335305 -0.058064666 -0.04724788 -0.05572002 -0.0007417352 -0.0043247915 0.031189654 -0.037520625
0.04129912 -0.021591868 0.030969953 -0.018309087 -0.021616135 -0.007912127 -0.015483991 0.032400128
0.036623105 0.008918933 -0.02136031 -0.022180622 -0.01223964 0.015354832 -0.04713196 -0.0023988427
-0.034438346 -0.035621677 -0.04574671 0.002562458 -0.021906625 -0.019812094 0.0037193329 0.029237356
-0.03750438 0.046021502 -0.044202853 0.027408805 -0.0013259744 -0.017529504 -0.031143669 0.010486687
0.02160909 0.05257966 -0.029533599 0.03882993 -0.027501462 0.044267867 -0.022930244 0.058775563
-0.039828416 -0.046976034 -0.0002618797 -0.0013856633 0.0108912345 -0.011945769 0.003267072 0.0007876222
-0.031096814 -0.0056267334 -0.036000554 0.0394233 -0.041272648 -0.017243972 -0.06391804 -0.0352539
-0.046310708 0.027824862 -0.0016116046 -0.05183107 -0.054647118 0.017457813 0.037056576 -0.02414646
0.0395402 -0.03972042 -0.015813662 0.012998963 -0.025475862 -0.045326777 -0.012443723 0.006273868
-0.0013934278 -0.005739146 0.008411155 -0.046208203 -0.046560287 -0.047470294 0.036636047 0.04032865
-0.05383656 0.013452441 0.009124157 0.0068292846 0.0015674954 -0.0281443 -0.030840006 -0.057941888
-0.028041808 -0.020094695 0.009372277 -0.0331175 -0.059649225 -0.048750345 -0.007871646 0.041808546
0.041236322 -0.03796749 -0.04207188 0.031520687 0.04615319 0.009474809 0.03458443 -0.04232096
-0.044424046 -0.057534516 0.006387868 0.039785113 0.029657867 0.018380048 0.017986504 0.016632544
-0.005345248 -0.062063433 -0.057860553 -0.019125693 -0.04749101 -0.04966492 -0.030781731 -0.020082185
-0.028654596 0.0015001694 0.009354524 -0.020173721 -0.031451646 0.021978877 0.020048393 0.0077573135
-0.021894911 -0.04585324 0.021244349 0.0006562679 -0.007174006 -0.040837012 0.0066461554 -0.021348096
-0.0043308483 -0.026509672 -0.028306894 0.030944763 0.03620321 -0.01348948 0.03046282 0.027461557
-0.029075889 0.04479171 -0.015326946 -0.06702077 -0.06058242 -0.057904765 -0.019675134 -0.012764356
-0.05259567 -0.0549368 -0.0159315 0.0030757138 0.033454362 -0.053570844 0.044085424 -0.009816961
-0.009978847 -0.050931364 -0.051937375 -0.009333894 -0.012303835 0.035222944 -0.0038556452 -0.054189634
0.027365388 -0.0013632192 0.00018481008 0.008542011 0.022148976 0.04592211 -0.015642947 -0.03243219

conv3.bias f4 [128]
00000000: 89c7 05bd b689 1dbd c03f 4f3d a10b fa3c
00000010: 0f32 61bd 46f9 3f3d de7f 1c3d 1c91 f4bb
00000020: f2aa fdbc 0060 5e3d 0319 45bd edf5 ff3c
00000030: 18f0 01bc b668 003d 903d 613c 5de0 293d
00000040: be78 4dbb 1dc5 3e3d e4f5 a9bc bc09 1bbd
00000050: f9e7 36bc 2399 01bd 5cfe b7bc 1cc9 43bd
00000060: af96 f63b 0518 20bd 4e14 91ba 3b02 18bd
00000070: bfcc b33c 112e 29bd 5e2a 463d a3b3 473d
00000080: 3e1c f4bb dfb5 0e3d 889f 27bd 9263 07bd
00000090: cf6c a03c 25e7 503c 5a17 1cbd 4e74 75bc
000000a0: 6e43 1dbd ae83 0b3d cce3 2abc 6ba3 5e3c
000000b0: 5136 5ebd 7e49 38bd d08e 06bd 22a3 45bd
000000c0: 78c1 f6bc fb71 f03b 0b9b 61bd 6fa7 25bd
000000d0: 43b6 64bc 6877 00bc 411b 49bd 9786 483d
000000e0: 35d4 a43c 3291 f0bc e7f4 a7bc f920 0b3c
000000f0: e050 23bd d533 82bc 71ad 223d 6291 623d
00000100: 2554 7eb9 3a34 59bd cb04 2abc dfdf ff3b
00000110: 3864 e93c 99ef 2c3d 3d89 c83b bba6 053d
00000120: 3832 053d 0c48 b0bc f77b 2abd f009 82bc
00000130: e136 22bd be75 08bd 21ed 3a3d ae4b 5e3d
00000140: 9890 eabc a8b5 c7bb 39f5 4ebc 007b 413c
00000150: da90 473d a792 5a3d 1b6d f5bc bd0b 5e3d
00000160: 4ce0 643d ce23 2cbd b6f4 c0bc 0e14 12bd
00000170: a2a0 13bd d9f0 2cbd f648 fd3c 1642 84bc
00000180: 3d5f 02bb 6088 463c bcb1 983c dbcc d0bc
00000190: e70a 01bd fa1c 3ebc 4515 23bd f700 bdbb
000001a0: 1de4 393d 875c 863c 463e 4e3d 7e89 36bd
000001b0: c8ba 183d b8a6 323d cb31 0139 4e26 e1bc
000001c0: cd23 92bb a09b 59bd 926c 373d a0cb 21bd
000001d0: bd47 16bd 7130 173c f9c5 be3c 937c 3a3d
000001e0: 0730 ed3c af32 21bc 1f30 4d3d 82d9 fdbc
000001f0: 5050 52bd 0f1e 803c a476 853c 1010 25bd
-0.032660995 -0.03846141 0.050597906 0.030523123 -0.05497938 0.046868585 0.03820788 -0.0074635874
-0.030965302 0.05429077 -0.048119556 0.031245196 -0.007930778 0.03134986 0.013747588 0.041473735
-0.0031352486 0.0465747 -0.020747133 -0.03785108 -0.011163705 -0.031640183 -0.022460155 -0.047799215
0.007525287 -0.039085407 -0.0011068673 -0.037111502 0.021948216 -0.041303698 0.04838025 0.0487553
-0.007449656 0.034841415 -0.040923625 -0.033053942 0.019583134 0.012750422 -0.038108207 -0.0149813425
-0.038394384 0.034061126 -0.010430288 0.013588767 -0.05425102 -0.044991963 -0.03285104 -0.04825128
-0.03012155 0.0073378063 -0.0550795 -0.04044288 -0.01395947 -0.007840969 -0.049098257 0.04895648
0.02012072 -0.02936611 -0.02050252 0.008491748 -0.03987205 -0.015893856 0.039716188 0.05531443
-0.00024254674 -0.053028323 -0.010377119 0.00780867 0.02849017 0.042220686 0.0061198757 0.03262971
0.032518595 -0.02151873 -0.04162213 -0.01587388 -0.039603118 -0.033315413 0.0456363 0.054271393
-0.0286334 -0.006094653 -0.012631708 0.011809111 0.048722126 0.053362515 -0.029959252 0.054210413
0.05587797 -0.042026334 -0.023554187 -0.035663657 -0.036041863 -0.042221878 0.03091858 -0.016144793
-0.0019893192 0.012117475 0.018639438 -0.025488308 -0.031504538 -0.011603588 -0.039815206 -0.0057679373
0.04538356 0.016401542 0.050352357 -0.044564717 0.037287503 0.043616027 0.00012320948 -0.027484085
-0.004459834 -0.05312693 0.044781275 -0.039500833 -0.03668951 0.009227858 0.02328776 0.04552896
0.028953565 -0.009838744 0.05009472 -0.030987505 -0.051346123 0.015639333 0.016291924 -0.04029852

bn3.weight f4 [128]
00000000: 1516 803f 8780 813f c7e5 7e3f 2a5f 7c3f
00000010: f62e 7e3f 36b6 813f 13a8 7c3f 0ac2 803f
00000020: 4c14 7f3f 661b 813f 012f 7c3f 78da 7d3f
00000030: 709a 803f 995a 803f 6ce9 803f ce4b 813f
00000040: a966 7d3f ec20 823f d5b0 7c3f 5760 803f
00000050: 6c62 7f3f 4ded 803f 2bdb 803f 2ece 7c3f
00000060: 5efa 7f3f e719 7e3f e407 7e3f 81e2 7f3f
00000070: 39ca 7e3f 8df9 7f3f 4936 7d3f 4a24 823f
00000080: 76c2 803f eb0c 7d3f b10e 7d3f e45f 813f
00000090: 6380 7f3f 41cd 7f3f bf68 813f eb84 7e3f
000000a0: 1bd8 813f 677f 7c3f 7b89 803f bdc3 7c3f
000000b0: 7c9d 803f 9d3e 813f d171 823f c834 803f
000000c0: 54fb 7c3f f6dd 803f d1f6 7e3f 0ad2 803f
000000d0: 1ced 7b3f af60 813f 5016 813f 3dd4 803f
000000e0: 0fb1 823f 863f 813f caf0 7f3f 5000 813f
000000f0: a1bb 7d3f 991d 803f c7cd 813f b85b 7e3f
00000100: c631 7c3f afb1 7c3f 4861 7c3f 2e6b 803f
00000110: 3d7c 7d3f 31ee 7e3f a7ff 803f 2db0 803f
00000120: 69cd 7c3f a2a8 7b3f f906 813f 5686 7f3f
00000130: 71cd 7c3f 9797 7f3f b999 823f c720 7b3f
00000140: 1d21 823f f706 7f3f 9f09 7e3f 0351 813f
00000150: 6aec 7b3f 0106 803f 3f47 813f 1b54 7a3f
00000160: 21b7 7f3f 2f63 7d3f 3439 823f b422 7f3f
00000170: 1f1e 7f3f cba8 823f cd0a 7e3f 0977 7d3f
00000180: 8964 823f ec95 7d3f 7b99 7b3f aa5b 823f
00000190: 5a3f 7c3f 0944 7c3f 98e2 7e3f 48e6 823f
000001a0: 34df 7c3f 85be 7d3f 4b7d 803f 37ff 7c3f
000001b0: dc88 7c3f 281b 7e3f 024b 7c3f c0df 7e3f
000001c0: 585c 7b3f d48b 7c3f 2577 803f 9320 7f3f
000001d0: 2188 7f3f add9 7e3f d89a 803f 0b93 803f
000001e0: e8e5 7c3f 3078 7e3f 70c0 7f3f 45a4 7e3f
000001f0: 443b 803f 1d23 813f 0fc2 823f 4e9f 7d3f
1.0006739 1.0117348 0.9956936 0.9858271 0.99290407 1.0133731 0.9869396 1.0059216
0.99640346 1.0086486 0.9850922 0.9916148 1.004713 1.0027648 1.0071235 1.0101259
0.9898477 1.0166297 0.98707324 1.00294 0.99759555 1.0072418 1.0066885 0.98752105
0.99991405 0.99258274 0.9923079 0.9995499 0.9952732 0.9999016 0.9891096 1.0167325
1.0059345 0.98847836 0.9885054 1.0107388 0.9980528 0.9992257 1.0110091 0.99421567
1.0144075 0.986319 1.0041956 0.9873617 1.004806 1.0097233 1.0190984 1.0016108
0.98820996 1.0067737 0.9959536 1.0064099 0.98408675 1.010763 1.0084934 1.006477
1.0210284 1.0097511 0.9997679 1.007822 0.99114424 1.0009032 1.0140923 0.993587
0.9851345 0.98708624 0.9858594 1.0032709 0.990177 0.995822 1.0078019 1.0053765
0.9875093 0.9830419 1.0080253 0.99814355 0.9875098 0.9984068 1.0203162 0.9809689
1.0166355 0.9962 0.9923343 1.0102848 0.98407614 1.0001832 1.0099868 0.97784585
0.9988881 0.9897947 1.0173707 0.9966233 0.99655336 1.0207762 0.9923523 0.9900976
1.0186931 0.9905689 0.9828107 1.0184224 0.98534167 0.98541313 0.99564505 1.0226526
0.9877808 0.99118835 1.0038236 0.98826927 0.9864633 0.9926019 0.9855195 0.99560165
0.9818778 0.9865086 1.003636 0.9965908 0.9981709 0.99550897 1.0047255 1.0044874
0.9878831 0.9940214 0.9990301 0.99469405 1.0018086 1.0088841 1.0215472 0.99071205

bn3.bias f4 [128]
00000000: 94a3 0b3c 3a24 493c 94c4 c1ba 6fc0 ccbb
00000010: 869f 9dbb ff2e 873c 1179 62bc 35b3 ea3b
00000020: 1e4d 9e3a 12b0 343c 6756 75bc 6671 e73a
00000030: 7b31 343c 0e91 2b3c 9ef4 4f3c bd87 353c
00000040: eb30 3fbc e50a 373c 048a 6fbc 0085 333c
00000050: 0cec b039 f83a d83b 96ff 603c c470 70bb
00000060: 387d 2a3c 55d8 63bb f47d 37bc 2b5f 013c
00000070: 1165 4c3a 7982 d53b 3d89 c1bb d6c0 bb3c
00000080: 7c70 793c 1b86 9fbb a72a e9bb f34e 173c
00000090: c0a8 823b f975 1b3c 4ba9 163c 6ad5 94b9
000000a0: f2f9 823c 6b45 9abc 6d79 2f3c f3f8 2dbc
000000b0: 137b 5b3a a5d8 863c e64d 953c 8a9b 343c
000000c0: 89a5 933a 6870 833c a51f e4ba fb11 6e3c
000000d0: 3597 e9bb dd32 713c b8c7 893c 160a 243c
000000e0: 14a5 b03c 056c a03c 5b27 7e3c 19b5 263c
000000f0: 8834 1a3c 45f3 663c 148a 1e3c 8fdc 8f3b
00000100: 34a7 19bc 061d 91bb a2d9 3e3b 6de2 d43b
00000110: 586d 3bbc a354 243c 7282 803c d7c7 f33b
00000120: f3fc 8cbb 1964 70bc 002e 3d3c 5aad c03b
00000130: 3cad 69bc 0da9 50bc aef6 af3c 4cda 6cbc
00000140: eb47 053c d9fb 3ebc 5b60 debb 7002 6e3c
00000150: 093f 55bb c9c9 0b3c a2ee 563c 9bfe f2bb
00000160: 5dce 6b3b 00eb f4bb 3646 963c 1f0e 3f3b
00000170: 66b8 1b39 9f7f a93c a547 c23b 5816 a9bb
00000180: 65b0 a23c 0749 b4bb 4c10 013b bebf 9b3c
00000190: 570e 89bc 89a3 b1bb 5ff9 013b 884e b93c
000001a0: 7e27 80bc e159 a8bb fca7 643c 8e5c 11bc
000001b0: 6ee5 2bbc 0b41 a6bb 4978 83bc d9a7 3fbb
000001c0: a5cf 88bc 2112 84bc c1cb b23b 37b7 063c
000001d0: a26c 9c3b ee6e b93b 1bd4 813c 1bff 813c
000001e0: 7c33 96bb 4f53 eb3b c403 6e3b 5623 9abb
000001f0: 144e 453c 4df0 4e3c 8841 963c 37e5 20bb
0.008522887 0.0122767035 -0.0014783316 -0.006248526 -0.0048102764 0.016501902 -0.01382281 0.0071624764
0.0012077426 0.011028307 -0.014974213 0.0017657697 0.010998125 0.010471595 0.012692599 0.011079726
-0.011669378 0.011172031 -0.014620308 0.010957003 0.00033745205 0.0065988265 0.013732811 -0.0036688307
0.010405831 -0.0034766395 -0.011199463 0.007896225 0.00077970425 0.0065157977 -0.0059062527 0.0229191
0.015224572 -0.0048682815 -0.0071156803 0.009235132 0.0039874017 0.009488576 0.009195636 -0.00028387766
0.015988324 -0.01883193 0.0107101025 -0.010618436 0.00083725265 0.016460726 0.018225621 0.0110234115
0.0011264543 0.01604481 -0.001740445 0.014530654 -0.007128621 0.014721599 0.016818866 0.01001217
0.02156309 0.019582758 0.015512313 0.010175013 0.0094119385 0.014096086 0.009676475 0.0043903063
-0.009378243 -0.0044285087 0.0029121418 0.0064967186 -0.011439644 0.010029945 0.015687201 0.0074395943
-0.004302615 -0.014672303 0.011546612 0.00588004 -0.014262494 -0.012735617 0.02147993 -0.014456343
0.008134822 -0.011656725 -0.006786389 0.014526948 -0.0032538793 0.008531996 0.013118418 -0.0074156052
0.0035981156 -0.0074743032 0.018344026 0.0029152704 0.00014850646 0.020690737 0.005928951 -0.0051601343
0.019859502 -0.0055018696 0.0019693552 0.019012328 -0.01673047 -0.0054211062 0.0019832475 0.022620454
-0.015643831 -0.0051376675 0.013956066 -0.008872164 -0.010491712 -0.0050736717 -0.016048567 -0.0029244332
-0.016700575 -0.016121926 0.0054564183 0.008222393 0.004773692 0.005658976 0.01584821 0.015868714
-0.004583774 0.007181562 0.0036318162 -0.0047039194 0.012042541 0.012630534 0.018341795 -0.0024550685

bn3.running_mean f4 [128]
00000000: 79af 4bbf b710 99be b93b db3a 7ee1 e03e
00000010: b86b b73d 7b82 c03e 0584 fabd 1845 0dbf
00000020: 8899 543e 4ce3 9ebe 9671 9dbe d60b bcbe
00000030: ae6b 9bbd fc2f ee3c 4730 7c3e 0e89 32bf
00000040: 5010 8a3b 48bf 2cbe 436d f43c 5e1c 93be
00000050: 5450 26be 88a0 82be 7b4b 093f 2516 00bf
00000060: 1d5b 5bbd 6417 9dbe 566d d6bd 77e2 80be
00000070: 6f73 a4be ab4d d1be c109 82be d0c1 183e
00000080: a3d6 643e f251 22bf c648 853d de31 5e3e
00000090: eacd 1cbe 75f3 36bf 9c1f 9bbe 7ebe 14bf
000000a0: 0271 15bf 830b 6dbc 6adf 573d b37b f73d
000000b0: 289e f53d e4b2 613d 7894 55bf 6458 18bf
000000c0: ffb1 86bd 575d 25be c705 96be 4f19 21bf
000000d0: f655 68be 06f9 f9be a09e 7b3d 38f7 b5be
000000e0: 32f8 30bf 3d29 43bf 87a7 ccbe 1735 58bd
000000f0: 185f 52bf 9f60 a0bb 5b2b c2bd d63d 8dbe
00000100: 53b3 03be 1b56 e6bd f135 babe c291 a33e
00000110: cb42 8abe 0222 413e 4eae a9be 12b3 1cbf
00000120: fd97 efbe 8460 f8bc 6a0f 273d 4358 803d
00000130: 3529 f53b ce16 b83e 1f64 723e e30e e6bd
00000140: c3ae 13be 3d17 57bd dec1 8ebe 66b0 32be
00000150: 7f5d 053e dfe1 123e 7960 8abe 9bcc 093e
00000160: 6c9c b9be cd42 4cbf c764 b0be 3ffe 0b3d
00000170: 303b dd3c d1d4 14bf 7ac6 c0be e7f8 d0bc
00000180: 0484 04bf d37e c8be ed33 05be dcfb 37bf
00000190: 02f5 ddbc 37d5 563e a979 123d 51e1 c7be
000001a0: 3664 b3bd 63f3 fb3a 2ad5 da3d b792 c2be
000001b0: b522 223e d23b 03bd a831 b4bd af87 1cbe
000001c0: 4f28 6b3e 37a3 f6bc 47b3 d8be ef6e bc3d
000001d0: d051 923d c089 79be 7c62 1cbf 3c71 163e
000001e0: 1197 19bf f4df fc3d 8905 13be d272 a0bd
000001f0: 953d 363d a029 9b3e 59b6 28bf 2a19 27be
-0.79564625 -0.29895565 0.0016726173 0.43922037 0.089560926 0.3759955 -0.12232212 -0.55183554
0.20761693 -0.3103279 -0.30750722 -0.3672778 -0.07588898 0.029075615 0.24627791 -0.6974038
0.0042133704 -0.16869843 0.029837256 -0.2873258 -0.1624158 -0.255131 0.536308 -0.5003379
-0.05355369 -0.30681908 -0.10470073 -0.2517278 -0.3211932 -0.40879568 -0.25398067 0.14917684
0.22347502 -0.6340629 0.06508021 0.2169871 -0.15312925 -0.71465236 -0.30297554 -0.5810317
-0.5837556 -0.014468077 0.0527033 0.12084141 0.119930565 0.055102244 -0.8342967 -0.59509873
-0.06576919 -0.16148888 -0.29301283 -0.6292924 -0.22689041 -0.48822802 0.061430573 -0.35540175
-0.69128716 -0.762348 -0.39971563 -0.052785005 -0.8217635 -0.0048943306 -0.09480926 -0.2758624
-0.12861376 -0.11246892 -0.3636928 0.31947142 -0.27004084 0.18860629 -0.33140796 -0.6121074
-0.46795645 -0.03031946 0.040786184 0.062668346 0.007481719 0.359549 0.23671006 -0.11233308
-0.14422135 -0.052512396 -0.27882284 -0.17450103 0.13023947 0.14343975 -0.27026728 0.13456957
-0.36252153 -0.7978943 -0.34451887 0.034178015 0.027005762 -0.5813723 -0.37651426 -0.02550931
-0.5176394 -0.3915926 -0.1300809 -0.7186868 -0.027094368 0.20979773 0.035760555 -0.3903909
-0.08759348 0.0019222315 0.10685189 -0.3800256 0.15833552 -0.03203947 -0.08798534 -0.15286134
0.22964595 -0.030107124 -0.42324278 0.092008464 0.07144511 -0.24368954 -0.61087775 0.14691633
-0.59996134 0.12347403 -0.1435758 -0.078344 0.044492323 0.30305195 -0.6590324 -0.16318193

bn3.running_var f4 [128]
00000000: db1e 333f 977f 093e 9f28 a23e 0e49 a13e
00000010: edf7 873f ee85 a43f a161 9a3e 475b 783f
00000020: 05f6 1c3f 69ed 213f 5dd3 c93d 91a2 a63f
00000030: 4da5 843f ff43 303f 8b1c 923f 40dd ab3f
00000040: 3992 e53e b1d8 c93d 04ed 733e 6684 5d3f
00000050: 87b1 333f 5252 113f 0a76 f23e a02e 8f3e
00000060: 0eea 503f d74e a73e 1761 0e3f c5d6 1e3f
00000070: 72f6 a13e 70be 183f ed98 813e 716b 123f
00000080: 83e6 503f 8ca2 3b3f 4151 db3e 34ee 813f
00000090: 089a 0f3f d80e 593f 1475 4a3f a764 043f
000000a0: babe 4e3f 4ab5 bf3e d4cb 123f c0a1 603e
000000b0: 0977 b63e 0421 323f 3f4f ce3e 0349 f73f
000000c0: 8729 163f 4a14 0c3f 0686 073f b89e 853f
000000d0: b359 2d3f 6d99 873f 35a3 843f 5388 423f
000000e0: d8f2 413f 47ea 0a3f eefd 773f a134 9c3f
000000f0: d886 653f 1a6e 4f3f ff03 1a3e 18b2 a03f
00000100: e90f 143f 2e13 7d3f d93e f53e 9a4e de3f
00000110: 29f7 603e 903e 893f 906f c43f 491f 2c3f
00000120: dfad 003f 018d 2f3f 7c60 403f 937c b73e
00000130: c1d7 7f3e b686 e93e 7a10 033e e085 cf3d
00000140: 8005 113f be75 b13e df9c d13e a283 2f3f
00000150: d1ea fe3e 4d83 923f f7d8 413f 7e9f 6f3e
00000160: 177e 923e 4126 cb3e faa2 0a3f 95cd 513f
00000170: d3f7 f93e b76c 873f 0687 f03d a6f0 333f
00000180: bdb2 c63f 473a 7a3e bcaf b43e bfb0 533f
00000190: 79d6 943e 4725 753f 12e3 353f 4bf2 7b3f
000001a0: 8a6d 2f3e f73c 133f c11a 863f b256 0a3e
000001b0: b674 9b3e 45b1 173f e0fb dc3e bbeb 9f3e
000001c0: c260 023e 288c d63e be0d 4a3f e822 8f3f
000001d0: 9628 1b3f 0640 303f 7558 273f 72db 4d3f
000001e0: 53bc 7c3f 5c90 a63e a8c0 f53d bb4e f13d
000001f0: 2304 103f 5048 3b3f 7222 fd3e 4e11 c03e
0.69968957 0.13427578 0.31671616 0.3150105 1.0622536 1.2853372 0.3015261 0.9701428
0.61312896 0.63252884 0.098547675 1.3018361 1.0362946 0.68853754 1.1414961 1.3426895
0.44838122 0.09855784 0.23820883 0.8653015 0.7019276 0.56766236 0.47355682 0.2796526
0.8160714 0.32677338 0.556169 0.6204646 0.31633335 0.59665585 0.25311986 0.5719519
0.8160173 0.732949 0.4283543 1.0150819 0.5609441 0.84788275 0.790849 0.51716083
0.80759776 0.37443 0.5734227 0.21936703 0.35637692 0.6958163 0.40294835 1.9319156
0.58657116 0.5471846 0.5293888 1.0439062 0.67714995 1.0593697 1.0362307 0.75989264
0.75761175 0.5426373 0.9687184 1.2203561 0.8965888 0.81027377 0.15040587 1.255435
0.57836777 0.9885739 0.4789951 1.7367737 0.21969284 1.0722218 1.5346546 0.6723524
0.50265306 0.6857453 0.75147223 0.3583723 0.24984647 0.4561059 0.12799254 0.101329565
0.5664902 0.34660143 0.40939996 0.6856023 0.49788526 1.144632 0.7572169 0.23400685
0.28611824 0.39677623 0.5415493 0.8195432 0.48821887 1.0580052 0.11744504 0.70289075
1.5523297 0.24436294 0.35290325 0.8269157 0.2906988 0.95760006 0.71049607 0.98416585
0.1713163 0.575149 1.0476915 0.13509634 0.3036248 0.59254867 0.43160915 0.31234536
0.12732223 0.41903806 0.7892722 1.1182528 0.60608804 0.6884769 0.6536935 0.8041297
0.9872486 0.32532012 0.11999637 0.11782595 0.5625631 0.73157215 0.49440342 0.37513202
