model.pth (torch, 452526 bytes, 28 tensors)

conv1.weight f4 [32, 3, 5]
0.11019579 0.092832945 -0.042141054 0.16933852 0.18975931 -0.16599217 0.11887032 0.01971469
0.2456567 0.019147845 -0.047246736 0.0019394197 0.1720928 -0.15083772 0.23055993 -0.06731741
0.22839783 0.22653653 -0.043129526 -0.0036989723 -0.044549365 -0.104108036 0.06431519 -0.18525623
-0.2537177 -0.06403426 -0.24813944 0.24540642 0.07592938 0.24899307 0.13050148 -0.19178988
0.14405401 -0.13010724 -0.22737023 -0.008543145 0.09992071 -0.015466621 0.1990377 -0.06868499
-0.14059965 0.18633518 0.06405478 -0.0058372766 0.14627784 -0.079670034 0.21794255 0.0506447
0.18145618 0.0450155 -0.07190255 0.21802987 -0.23571625 -0.2362397 0.1647903 0.08598559
-0.18612231 0.10625239 0.15388907 -0.1976292 -0.006424768 -0.19357282 0.038796835 -0.13264102
-0.15067182 -0.22815183 0.13733336 0.05135239 0.13762373 0.21491586 -0.096319415 0.041420862
-0.09052128 -0.17119937 0.17308672 -0.2065454 -0.14468355 -0.010350776 -0.12711254 0.19485943
0.2276301 0.05230399 -0.15411916 0.04914171 -0.05163512 0.0029475004 0.12805878 0.22361374
-0.14466159 0.16327418 0.15747829 0.20459972 -0.03543673 0.2235438 -0.16727993 0.11678276
-0.008358995 0.19306938 -0.039504174 -0.05618562 -0.23871613 -0.08109708 0.011746278 0.12966187
-0.03574687 -0.116160214 0.20656325 -0.16298436 -0.054471176 -0.22650787 -0.07355393 -0.0070074606
-0.11867426 0.2511209 0.07647024 -0.028825326 0.20462047 0.0011141989 0.16256025 -0.16573569
0.19081075 -0.022098009 -0.18129663 -0.1370205 0.12328753 -0.1907024 0.23535118 0.065286845
0.2621094 0.20007595 0.18586843 0.0017721037 -0.10469008 0.026621407 -0.21768384 -0.0026833245
-0.021017898 -0.14454758 -0.018102432 0.19560029 0.036113378 -0.01202173 0.20632485 -0.11649191
-0.16202067 0.24062118 0.014269364 -0.06044773 0.19112666 -0.11903168 0.03165751 0.038686465
-0.18510191 -0.120802425 0.018319366 -0.00034776592 -0.17532073 0.21643029 -0.21026745 0.18258254
-0.16802324 0.26259458 -0.15299897 0.24333295 -0.05826877 -0.15970097 0.018604567 0.26082927
-0.06600132 0.25676936 -0.20351437 0.0030634762 -0.18636698 0.023998253 -0.039155185 0.21939969
0.04325011 0.11408061 0.2319688 0.090444885 -0.1806452 0.08365383 -0.1373915 -0.008512194
-0.23833086 -0.19288054 -0.02103481 0.00017478038 0.20072517 -0.1184097 -0.1986126 0.22199498
-0.114074975 -0.11006343 -0.12140966 0.16726755 0.04118277 -0.061150014 -0.07073634 0.14316517
0.18100394 -0.07148622 0.26437736 0.0869966 0.1708659 -0.17285402 0.07060456 -0.18171278
0.14413424 -0.21958832 0.16464508 -0.060544223 0.07545807 -0.20987783 -0.04549825 0.12206481
-0.03103828 0.23906098 -0.08316849 -0.12681288 -0.1684415 0.23131923 -0.24398452 -0.04646473
-0.12724371 -0.078044854 -0.17043988 -0.15393314 0.21006751 0.18748939 0.15277784 0.13723183
-0.15438507 0.25154826 -0.14719637 0.22867887 0.22394793 -0.092310615 -0.053166363 0.11649479
0.07550714 0.03653553 -0.054547798 -0.15969491 0.1377199 -0.20748459 0.053856164 0.00021210246
0.19368146 0.22206587 -0.1599656 -0.026419003 -0.12192001 0.06413182 -0.009302824 0.08769927
00000000: 55ae e13d 331f be3d 199c 2cbd 1467 2d3e
00000010: 4450 423e daf9 29be 4872 f33d b480 a13c
00000020: 6e8d 7b3e f1db 9c3c cb85 41bd 2034 fe3a
00000030: 1839 303e 3475 1abe e717 6c3e b6dd 89bd
00000040: 1fe1 693e 31f9 673e 96a8 30bd 756a 72bb
00000050: 6579 36bd 9836 d5bd afb7 833d cfb3 3dbe
00000060: 49e7 81be 6524 83bd 4418 7ebe d24b 7b3e
00000070: dd80 9b3d 0af8 7e3e 2ea2 053e 9164 44be
00000080: e582 133e d53a 05be bed3 68be 8cf8 0bbc
00000090: 3ba3 cc3d b667 7dbc 8ad0 4b3e b7aa 8cbd
000000a0: 5bf9 0fbe a6ce 3e3e 272f 833d a046 bfbb
000000b0: dcc9 153e 0b2a a3bd 552c 5f3e d170 4f3d
000000c0: a6cf 393e 2c62 383d a541 93bd 3943 5f3e
000000d0: 9a5f 71be d2e8 71be cabe 283e 3719 b03d
000000e0: d996 3ebe da9a d93d 1995 1d3e 4f5f 4abe
000000f0: dc86 d2bb f437 46be 6ee9 1e3d 0cd3 07be
00000100: b749 1abe a2a0 69be 1ea1 0c3e e256 523d
00000110: 3ced 0c3e e712 5c3e 1d43 c5bd eca8 293d
00000120: 3963 b9bd e34e 2fbe a53d 313e a380 53be
00000130: ed27 14be 4d96 29bc ca29 02be 3b89 473e
00000140: dd17 693e b53c 563d 6ad1 1dbe d148 493d
00000150: 597f 53bd da2a 413b d721 033e 00fb 643e
00000160: 2b22 14be 5931 273e fd41 213e 9782 513e
00000170: 1b26 11bd aae8 643e 6e4b 2bbe cd2b ef3d
00000180: 2bf4 08bc fbb3 453e 21cf 21bd e522 66bd
00000190: 0072 74be 3a16 a6bd 7673 403c 15c6 043e
000001a0: 4f6b 12bd 68e5 edbd 5185 533e 5fe5 26be
000001b0: 2b1d 5fbd aef1 67be 71a3 96bd d79e e5bb
000001c0: 7e0b f3bd eb92 803e 6e9c 9c3d 1723 ecbc
000001d0: 0788 513e 500a 923a 3276 263e 9eb6 29be
000001e0: e563 433e e206 b5bc d3a5 39be 1a4f 0cbe
000001f0: 2c7e fc3d 7d47 43be e6ff 703e 1cb5 853d
00000200: 3433 863e b6e0 4c3e 4b54 3e3e ef45 e83a
00000210: c167 d6bd 2315 da3c 83e8 5ebe b7da 2fbb
00000220: ba2d acbc 4804 14be 8d4b 94bc 714b 483e
00000230: 9feb 133d caf6 44bc d246 533e 4f93 eebd
00000240: bfe8 25be 6665 763e 0dca 693c 0a98 77bd
00000250: b5b6 433e e2c6 f3bd 4eab 013d b375 1e3d
00000260: 5b8b 3dbe 4367 f7bd 7f12 963c 5a54 b6b9
00000270: 4787 33be e79f 5d3e 5a50 57be ebf6 3a3e
00000280: 490e 2cbe cc72 863e c3ab 1cbe 462c 793e
00000290: 3cab 6ebd a788 23be 9b68 983c 6a8b 853e
000002a0: b32b 87bd 4677 833e 1266 50be 9ac4 483b
000002b0: fcd6 3ebe fc97 c43c 3061 20bd 50aa 603e
000002c0: 0727 313d 18a3 e93d 3b89 6d3e 2b3b b93d
000002d0: 0efb 38be b352 ab3d 5bb0 0cbe bb76 0bbc
000002e0: 010d 74be 7a82 45be 3251 acbc 4045 3739
000002f0: e68a 4d3e c980 f2bd 1a61 4bbe a752 633e
00000300: 24a0 e9bd f068 e1bd a1a5 f8bd 2f48 2b3e
00000310: 44af 283d 7078 7abd 37de 90bd e499 123e
00000320: 1959 393e 5e67 92bd 785c 873e 462b b23d
00000330: 78f7 2e3e a500 31be 2099 903d ea12 3abe
00000340: ed97 133e c3db 60be b898 283e 38fd 77bd
00000350: c389 9a3d 37ea 56be 5f5c 3abd 1dfd f93d
00000360: fe43 febc 67cc 743e 3e54 aabd 3cdb 01be
00000370: ee7b 2cbe f3de 6c3e 14d7 79be cd51 3ebd
00000380: 2d4c 02be fbd5 9fbd cb87 2ebe a6a0 1dbe
00000390: f01b 573e 38fd 3f3e cb71 1c3e 8086 0c3e
000003a0: 1f17 1ebe efca 803e a5ba 16be cb2a 6a3e
000003b0: 9b52 653e 590d bdbd f9c4 59bd d294 ee3d
000003c0: 7da3 9a3d 48a6 153d 836d 5fbd 1087 23be
000003d0: 7206 0d3e d776 54be 4898 5c3d d267 5e39
000003e0: 6f54 463e 3c65 633e 06ce 23be aa6c d8bc
000003f0: 33b1 f9bd 8b57 833d df6a 18bc ad9b b33d

conv1.bias f4 [32]
0.074742965 0.21892133 -0.08446001 0.2410743 -0.07145008 0.05342719 0.07250708 -0.067323565
-0.11709942 0.20192447 0.22526313 0.01839718 -0.0053209946 -0.17451821 -0.12817034 -0.097854465
0.013457169 -0.14085284 0.20030323 -0.078141645 -0.15723108 0.091152824 0.103037044 -0.208683
-0.13698025 -0.1563318 -0.10101981 0.0730513 0.18944426 0.22718242 0.019050745 0.08443572
00000000: d712 993d ea2c 603e 5ff9 acbd 2edc 763e
00000010: 6b54 92bd 78d6 5a3d 987e 943d f0e0 89bd
00000020: d2d1 efbd 4ac5 4e3e 61ab 663e afb5 963c
00000030: bd5b aebb e7b4 32be 163f 03be ec67 c8bd
00000040: 757b 5c3c ba3b 10be 4a1c 4d3e ba08 a0bd
00000050: 2f01 21be 55ae ba3d 1605 d33d ffb0 55be
00000060: 8d44 0cbe 7215 20be 79e3 cebd ec9b 953d
00000070: adfd 413e 82a2 683e 4f10 9c3c a3ec ac3d

bn1.weight f4 [32]
1.0102915 1.0155972 1.005555 0.9959696 0.9996023 0.9988945 0.9834248 1.0075967
0.99224913 0.9913892 1.0007181 1.0127233 1.0132023 0.99776125 1.0074362 0.9994143
1.0024091 0.9853975 0.99626863 0.9825995 0.9959905 0.9989505 0.9951226 1.0024813
0.9969873 0.99941564 0.9981564 0.9996944 1.0033559 1.0076519 0.98451394 0.98866963
00000000: 3b51 813f 17ff 813f 07b6 803f ddf7 7e3f
00000010: f0e5 7f3f 8db7 7f3f bac1 7b3f eef8 803f
00000020: 0a04 7e3f afcb 7d3f 8817 803f eba0 813f
00000030: 9db0 813f 486d 7f3f abf3 803f 9ed9 7f3f
00000040: f14e 803f 0343 7c3f 760b 7f3f a48b 7b3f
00000050: 3cf9 7e3f 38bb 7f3f 5bc0 7e3f 4f51 803f
00000060: 8f3a 7f3f b4d9 7f3f 2e87 7f3f f9eb 7f3f
00000070: f76d 803f bdfa 803f 1b09 7c3f 7419 7d3f

bn1.bias f4 [32]
0.00925317 0.012394338 -0.005256402 -0.0047502746 0.0101618655 0.00954115 -0.008030491 0.0065963785
0.018028913 -0.0073939147 -0.003862965 -0.0057659103 -0.00037805058 0.003243535 0.0075814705 -0.002331812
0.0024319394 -0.0071678367 0.009086796 0.002340867 0.0054457155 0.013949439 -0.003504027 0.009291239
-0.00043517907 -0.004259902 0.007199494 0.005507616 -0.001013576 0.007894122 -0.011959668 -0.01367631
00000000: 9c9a 173c 9f11 4b3c e53d acbb 31a8 9bbb
00000010: f47d 263c 7c52 1c3c 5292 03bc 6f26 d83b
00000020: 5fb1 933c a748 f2bb cc29 7dbb f6ef bcbb
00000030: 1735 c6b9 7d91 543b fc6d f83b 50d1 18bb
00000040: 2c61 1f3b 2ce0 eabb c9e0 143c 3b69 193b
00000050: f971 b23b 308c 643c d1a3 65bb 483a 183c
00000060: bf28 e4b9 a696 8bbb bce9 eb3b 3b79 b43b
00000070: f8d9 84ba 5956 013c 7cf2 43bc 9a12 60bc

bn1.running_mean f4 [32]
474.95764 73.18849 112.636665 100.76924 -145.52808 132.55617 155.72136 -5.5437694
186.44867 133.40065 -23.621323 364.38257 -468.8733 188.43796 -184.9604 346.8654
-6.8345637 101.23552 -276.80902 -121.71419 243.75119 498.9463 183.93059 207.25873
27.839548 -331.09885 219.72157 8.562824 381.06772 -143.7911 76.59911 -54.51013
00000000: 947a ed43 8260 9242 f945 e142 da89 c942
00000010: 3087 11c3 618e 0443 abb8 1b43 8f66 b1c0
00000020: dc72 3a43 9166 0543 78f8 bcc1 f830 b643
00000030: c86f eac3 1e70 3c43 ddf5 38c3 c56e ad43
00000040: bfb4 dac0 9678 ca42 8e67 8ac3 aa6d f3c2
00000050: 4ec0 7343 2079 f943 3bee 3743 3c42 4f43
00000060: 65b7 de41 a78c a5c3 b9b8 5b43 5401 0941
00000070: ab88 be43 86ca 0fc3 bf32 9942 600a 5ac2

bn1.running_var f4 [32]
52284.88 44963.93 27396.12 22687.717 32743.17 38139.348 31750.506 23635.086
40154.793 12248.358 9273.494 86107.41 48983.58 67436.64 21886.969 43970.21
18834.465 15705.948 55554.29 5845.142 54643.45 61734.914 27293.846 28369.207
22489.75 32709.568 19556.627 8346.396 32364.19 44410.35 15923.731 31811.396
00000000: e13c 4c47 eea3 2f47 3d08 d646 6f3f b146
00000010: 57ce ff46 59fb 1447 030d f846 2ca6 b846
00000020: cbda 1c47 6f61 3f46 fae5 1046 b42d a847
00000030: 9457 3f47 52b6 8347 f0fd aa46 36c2 2b47
00000040: ee24 9346 cb67 7546 4a02 5947 23a9 b645
00000050: 7373 5547 ea26 7147 b13b d546 6aa2 dd46
00000060: 80b3 af46 238b ff46 41c9 9846 9669 0246
00000070: 61d8 fc46 5a7a 2d47 edce 7846 cb86 f846

conv2.weight f4 [64, 32, 5]
0.037334293 0.043258727 0.0031014238 0.038833555 -0.06793977 -0.036808003 -0.04955766 -0.059514172
-0.017223114 -0.005443655 0.035084955 -0.021201598 -0.063215785 0.011881009 -0.058484245 0.060748436
0.044612166 -0.06719275 -0.043869127 -0.04782445 -0.05971171 0.017571878 0.0029209948 0.021398157
-0.030285262 0.044350572 -0.07020873 -0.053881414 -0.0063417135 0.053753957 0.029361703 -0.07244469
-0.04630771 -0.042547483 -0.004738762 0.06510662 0.0071851187 0.058467265 -0.0514163 -0.061467532
-0.05100669 0.024112735 0.07248832 0.042718 0.021453494 0.0069101257 -0.016086096 -0.019327907
-0.026417762 0.07387004 -0.07499807 -0.040387355 -0.041002896 -0.003746051 -0.02242741 0.015973741
0.0798533 -0.014003289 0.08325214 0.078441784 -0.008011456 0.044926003 -0.07344263 -0.04876398
0.077337496 -0.011223706 0.0700161 0.043886043 0.0887202 0.020352433 0.008470318 -0.023997921
-0.03887676 0.05917563 0.019292561 0.0795198 -0.06207068 -0.06579452 0.025916005 0.04271708
-0.016492527 0.053614974 0.052192364 -0.009428464 -0.06484765 0.082006894 0.040933922 0.031102382
-0.027575916 -0.038307507 -0.043116715 -0.07240513 -0.005423061 0.036581304 -0.028272904 0.066219874
-0.05888347 0.021803886 -0.005106883 0.016669383 -0.022030711 0.03740118 -0.05022894 -0.03320262
-0.02490901 -0.05315099 0.06916805 0.060389172 0.03929032 -0.06616491 0.010182273 0.027169568
-0.076948196 0.0048210844 0.06453968 -0.033202454 0.05788833 0.0407892 0.07483573 -0.027436025
-0.03505769 0.07021657 -0.07611676 -0.068963125 -0.06288155 -0.08363595 0.046325617 -0.0065362775
0.057667125 -0.030458357 -0.04581414 0.022697475 0.0042504724 -0.057256013 0.0017546033 -0.06354494
0.0099358475 0.066539645 -0.03159552 0.06693413 -0.057756312 -0.016130257 0.020404385 0.03200278
-0.0039870427 -0.07208946 0.055186603 0.062028587 0.0026402276 0.0099129295 0.04028351 -0.014260937
0.04212013 -0.05776252 -0.06513779 -0.0334747 -0.027630942 0.025275147 0.0037624163 0.044626437
0.0768525 -0.043742735 0.028075747 -0.07512301 0.018303653 -0.06897176 -0.022121955 -0.059000403
-0.0014843601 -0.071026124 0.08305937 -0.017136812 0.038967967 -0.05311404 0.068868876 -0.063002594
0.030266931 0.0012582081 0.03519658 -0.0650958 0.0079362625 0.0011022793 0.049742278 0.040206354
0.06703082 0.058547653 -0.03463822 0.035204835 -0.009087339 -0.049473576 -0.034146734 0.021590333
-0.01913498 0.0034438344 -0.073339045 0.01433981 0.06513579 0.036671907 -0.065995805 -0.046580058
0.045360077 -0.020448118 -0.040271323 -0.07037682 -0.0017823426 0.02237619 0.011948221 -0.028745677
-0.036706332 0.04319194 -0.031341784 -0.0017817144 -0.07691933 0.03611776 0.010545209 -0.01867711
0.024273057 0.04216853 -0.018476587 -0.013438924 -0.021524506 -0.029347781 0.036035553 0.060436435
-0.06041264 -0.044453178 -0.026243314 0.03643173 -0.040661424 0.028149744 0.047746938 0.0049502254
-0.07289294 -0.048849717 -0.05079129 -0.05369286 -0.0650687 -0.055899482 -0.01985155 -0.05420518
0.032768607 0.042980094 -0.045041155 -0.04087773 -0.0512718 -0.068515174 -0.07337364 -0.072241455
-0.013869428 -0.01867119 -0.015230112 -0.026567457 0.03614707 -0.01545319 0.026614336 -0.06724744
00000000: d8eb 183d 1030 313d 4241 4b3b ef0f 1f3d
00000010: 0224 8bbd fdc3 16bd f9fc 4abd 22c5 73bd
00000020: 7d17 8dbc b060 b2bb 3eb5 0f3d f9ae adbc
00000030: 4777 81bd 90a8 423c 2d8d 6fbd 5ad3 783d
00000040: 3fbb 363d 5a9c 89bd 1db0 33bd 92e3 43bd
00000050: 4494 74bd e6f2 8f3c 296e 3f3b 304b af3c
00000060: cc18 f8bc f2a8 353d 98c9 8fbd c2b2 5cbd
00000070: 26ce cfbb 1c2d 5c3d f487 f03c e25d 94bd
00000080: 27ad 3dbd 4546 2ebd 9e47 9bbb 9f56 853d
00000090: 2571 eb3b 5f7b 6f3d e699 52bd 61c5 7bbd
000000a0: 64ec 50bd 1288 c53c c274 943d 12f9 2e3d
000000b0: 3dbf af3c 566e e23b fdc6 83bc 8f55 9ebc
000000c0: 106a d8bc 2d49 973d 9798 99bd 366d 25bd
000000d0: a7f2 27bd 4f80 75bb b0b9 b7bc 5ddb 823c
000000e0: 208a a33d 0d6e 65bc 1980 aa3d 16a6 a03d
000000f0: 7b42 03bc 5404 383d 1769 96bd bdbc 47bd
00000100: 1f63 9e3d a3e3 37bc 9a64 8f3d dac1 333d
00000110: f0b2 b53d 25ba a63c 17c7 0a3c 4a97 c4bc
00000120: 3d3d 1fbd 2562 723d 6f0b 9e3c 47db a23d
00000130: d33d 7ebd 47bf 86bd cd4d d43c 1bf8 2e3d
00000140: 561b 87bc 609b 5b3d a9c7 553d d879 1abc
00000150: d8ce 84bd 3bf3 a73d 54aa 273d 6cca fe3c
00000160: e3e6 e1bc 55e8 1cbd 279b 30bd 2449 94bd
00000170: efb3 b1bb 47d6 153d 949c e7bc 499e 873d
00000180: cb2f 71bd 109e b23c a457 a7bb 3b8e 883c
00000190: c079 b4bc fb31 193d dcbc 4dbd 78ff 07bd
000001a0: fb0d ccbc dab4 59bd fba7 8d3d a35a 773d
000001b0: e3ee 203d 7881 87bd 8cd3 263c b792 de3c
000001c0: 0497 9dbd 30fa 9d3b 612d 843d 4cff 07bd
000001d0: 501c 6d3d 9412 273d 7a43 993d 84c1 e0bc
000001e0: a798 0fbd b4cd 8f3d 1be3 9bbd 8a3c 8dbd
000001f0: 0bc8 80bd 5349 abbd eebf 3d3d 452e d6bb
00000200: 5d34 6c3d ce83 f9bc 9ca7 3bbd 0ef0 b93c
00000210: 8c47 8b3b 4885 6abd b8fa e53a d923 82bd
00000220: f7c9 223c f045 883d 4e6a 01bd c314 893d
00000230: e291 6cbd 9a23 84bc 1927 a73c 5915 033d
00000240: bda5 82bb a4a3 93bd 590b 623d b011 7e3d
00000250: ab07 2d3b d769 223c 5200 253d b5a6 69bc
00000260: 2886 2c3d 6498 6cbd f666 85bd c41c 09bd
00000270: 495a e2bc d30d cf3c df92 763b 36ca 363d
00000280: d864 9d3d 952b 33bd 1cff e53c 18da 99bd
00000290: 8bf1 953c 1141 8dbd 1a39 b5bc 68aa 71bd
000002a0: dc8e c2ba 2576 91bd 081b aa3d 8062 8cbc
000002b0: e09c 1f3d 1c8e 59bd 200b 8d3d 8107 81bd
000002c0: 5bf2 f73c 75ea a43a 4a2a 103d f250 85bd
000002d0: 1907 023c 5b7a 903a 8fbe 4b3d 6baf 243d
000002e0: 7447 893d aacf 6f3d cee0 0dbd f232 103d
000002f0: 10e3 14bc cea4 4abd 72dd 0bbd 36de b03c
00000300: f6c0 9cbc f4b1 613b c832 96bd 86f1 6a3c
00000310: ea65 853d 4835 163d cf28 87bd bbca 3ebd
00000320: 7dcb 393d d082 a7bc 8bf3 24bd b921 90bd
00000330: 7e9d e9ba 464e b73c 79c2 433c 0e7c ebbc
00000340: 6159 16bd 08ea 303d 3e60 00bd 6a88 e9ba
00000350: e287 9dbd 37f0 133d d0c5 2c3c bd00 99bc
00000360: 4ad8 c63c e9b8 2c3d 365c 97bc ef2e 5cbc
00000370: 2954 b0bc c26a f0bc 049a 133d 328c 773d
00000380: 3f73 77bd 8914 36bd 38fc d6bc 7039 153d
00000390: 988c 26bd 4b9a e63c 4b92 433d 8035 a23b
000003a0: e548 95bd a416 48bd 870a 50bd 0bed 5bbd
000003b0: bd42 85bd dbf6 64bd b89f a2bc 4006 5ebd
000003c0: 6038 063d e50b 303d 137d 38bd 686f 27bd
000003d0: 6102 52bd af51 8cbd eb44 96bd 54f3 93bd
000003e0: 993c 63bc 53f4 98bc b887 79bc ffa3 d9bc
000003f0: f30e 143d 602f 7dbc 4f06 da3c 07b9 89bd

conv2.bias f4 [64]
-0.06047691 -0.014417043 0.0638839 0.0469174 0.025341732 0.057887584 0.028089052 0.00979365
-0.06922874 -0.02400033 0.042161223 -0.01210388 0.02808826 0.042805266 -0.011380142 -0.037495423
0.03298461 0.0344376 -0.01621051 0.030691225 0.030340387 0.07465756 0.0129045565 -0.023993246
-0.0737526 -0.06892544 -0.022380587 -0.044751186 -0.0765376 0.047861338 0.07223637 0.048925117
0.07361848 0.064894736 0.014412808 0.06820512 -0.019311298 0.059468195 -0.0021287445 -0.031738654
-0.068219595 0.06942641 -0.07609942 -0.07003269 0.032148514 -0.0486799 -0.037838537 0.010206013
0.062647544 -0.07356903 -0.07282837 -0.012286049 0.02606671 -0.030660328 0.030543787 0.054731347
-0.05882808 -0.014834377 -0.067117594 0.011236693 -0.026018998 0.03287419 -0.0035737774 0.061516136
00000000: a3b6 77bd 7635 6cbc 90d5 823d 762c 403d
00000010: 7799 cf3c 881b 6d3d 031b e63c 8c75 203c
00000020: ccc7 8dbd 579c c4bc 3fb1 2c3d 5a4f 46bc
00000030: 5a19 e63c 9354 2f3d c673 3abc cd94 19bd
00000040: df1a 073d 710e 0d3d e7cb 84bc 2a6c fb3c
00000050: 678c f83c 10e6 983d a26d 533c 7c8d c4bc
00000060: 9a0b 97bd c828 8dbd 7e57 b7bc 054d 37bd
00000070: bfbf 9cbd 400a 443d a9f0 933d b465 483d
00000080: 49c5 963d 88e7 843d b323 6c3c 20af 8b3d
00000090: ba32 9ebc ec94 733d 6882 0bbb 6400 02bd
000000a0: b7b6 8bbd 6f2f 8e3d 03da 9bbd 4d6d 8fbd
000000b0: 29ae 033d 9364 47bd 95fc 1abd 1f37 273c
000000c0: 5b4d 803d 5cab 96bd 0a27 95bd 6d4b 49bc
000000d0: da89 d53c 5e2b fbbc f736 fa3c fa2d 603d
000000e0: b6f5 70bd e30b 73bc f374 89bd 1b1a 383c
000000f0: cb25 d5bc 16a7 063d 0936 6abb 58f8 7b3d

bn2.weight f4 [64]
0.9923016 1.0013685 1.0061327 1.0060134 1.0122445 0.994608 0.9908273 1.0190073
0.99250364 1.0013188 1.0063686 0.9984472 0.99090326 1.0093926 0.98651856 0.99166363
1.0098665 0.98891133 0.9853991 0.98993236 1.0041128 1.0014186 0.99830097 0.987019
1.0000104 0.99494386 1.0082548 0.9951252 0.9973315 0.99395204 1.0044549 0.9964246
0.9840708 0.99373406 0.98720974 1.0000983 0.9946047 0.98591846 1.0078274 1.0000017
1.0004075 1.0021162 1.0020403 1.0120844 0.9905245 1.0075037 1.0011119 0.9973943
0.99293387 0.9937163 1.0081604 0.99569386 1.0082154 1.002339 0.99172026 1.000251
1.0056572 1.0046964 0.98382014 0.990823 1.012263 0.9990471 0.9847034 0.9962738
00000000: 7a07 7e3f d82c 803f f5c8 803f 0cc5 803f
00000010: 3a91 813f a19e 7e3f dca6 7d3f d56e 823f
00000020: b814 7e3f 372b 803f b0d0 803f 3c9a 7f3f
00000030: d6ab 7d3f c733 813f 7b8c 7c3f abdd 7d3f
00000040: 4e43 813f 4b29 7d3f 1e43 7c3f 356c 7d3f
00000050: c586 803f 7c2e 803f a790 7f3f 47ad 7c3f
00000060: 5700 803f a4b4 7e3f 7e0e 813f 86c0 7e3f
00000070: 1e51 7f3f a473 7e3f fa91 803f af15 7f3f
00000080: 10ec 7b3f 5b65 7e3f c7b9 7c3f 3903 803f
00000090: 6a9e 7e3f 2765 7c3f 7d00 813f 0e00 803f
000000a0: 5a0d 803f 5845 803f db42 803f fb8b 813f
000000b0: 0393 7d3f e2f5 803f 6f24 803f 3c55 7f3f
000000c0: ea30 7e3f 3164 7e3f 660b 813f cbe5 7e3f
000000d0: 340d 813f a54c 803f 61e1 7d3f 3a08 803f
000000e0: 60b9 803f e499 803f a3db 7b3f 93a6 7d3f
000000f0: d591 813f 8dc1 7f3f 8615 7c3f cd0b 7f3f

bn2.bias f4 [64]
-0.009231345 0.007801349 0.00574124 0.006858041 0.0026040971 5.3730848e-05 -0.008996696 0.0046313284
0.0052422746 0.0009445932 0.0057799006 -0.003690358 -0.0039346167 -0.0051051877 -0.0109036835 -0.0020225085
0.012068184 -0.0031613037 -0.014046482 -0.010312499 -0.0004151683 -0.0024605903 -0.007249647 -0.009136038
0.008437316 0.0014527792 0.005957961 -0.00976159 0.007529683 -0.004511904 0.013772874 0.0025461526
-0.01607384 -0.013710212 -0.011612943 0.00041673228 -0.0031055848 -0.010751215 0.003410588 0.005316076
-0.005019874 0.0031377536 0.006147714 0.020539824 -0.006082751 0.008256325 -0.01348249 0.012980009
0.0047178054 0.0016666632 0.010985863 0.004991198 0.008656356 0.006302482 -0.008154499 -0.0015518595
0.006712853 0.0044416506 -0.013179506 -0.004735514 0.0050970498 0.0015709816 -0.015700826 -0.0034389496
00000000: 113f 17bc 75a2 ff3b 0321 bc3b 6bb9 e03b
00000010: 80a9 2a3b 0f5d 6138 e166 13bc 66c2 973b
00000020: 63c7 ab3b 949e 773a 5265 bd3b efd9 71bb
00000030: f5ed 80bb 6b49 a7bb 5da5 32bc 108c 04bb
00000040: a2b9 453c e02d 4fbb 3723 66bc c1f5 28bc
00000050: f2aa d9b9 db41 21bb 728e edbb 52af 15bc
00000060: ab3c 0a3c 2e6b be3a 003b c33b 13ef 1fbc
00000070: 8fbb f63b 98d8 93bb 9fa7 613c 5add 263b
00000080: 49ad 83bc cca0 60bc 3744 3ebc dc7c da39
00000090: 1187 4bbb dd25 30bc 2c84 5f3b 7a32 ae3b
000000a0: c17d a4bb c5a2 4d3b c372 c93b 2243 a83c
000000b0: d051 c7bb 8945 073c a9e5 5cbc 1baa 543c
000000c0: d297 9a3b f073 da3a 0dfe 333c 348d a33b
000000d0: 63d3 0d3c 0d85 ce3b 739a 05bc c467 cbba
000000e0: 7ef7 db3b 448b 913b dbee 57bc 5f2c 9bbb
000000f0: 2705 a73b 65e9 cd3a 059f 80bc 0060 61bb

bn2.running_mean f4 [64]
-0.10405912 -0.41338798 -0.018462695 0.13717131 -0.2168157 0.03431006 -0.110910006 -0.3194575
-0.39620295 -0.105247766 -0.019971678 -0.14352028 0.06038711 -0.07465629 0.10030968 0.2360741
-0.47682095 -0.10296812 -0.37071183 -0.020416832 -0.22693104 0.33633882 -0.0484982 0.31811145
0.20477375 0.19940904 0.2626953 0.04748709 -0.12830032 -0.064739145 0.11814424 -0.10204331
0.2306567 0.041901693 0.095939584 -0.4752784 0.26588005 0.13884461 -0.47341904 -0.2528005
0.0667831 -0.08295392 -0.4113158 -0.20979702 -0.36661842 -0.24916862 0.06441614 0.29917687
0.26225042 0.111683875 -0.2513433 -0.11172933 -0.14283293 0.45639414 0.11275419 -0.11634618
0.07107526 -0.17799671 0.35024026 0.10413424 -0.18093361 0.119881004 0.078649156 0.38822308
00000000: f31c d5bd 97a7 d3be 143f 97bc a376 0c3e
00000010: ef04 5ebe b588 0c3d c924 e3bd ef8f a3be
00000020: 1ddb cabe 248c d7bd a59b a3bc fbf6 12be
00000030: 7958 773d 66e5 98bd 296f cd3d 69bd 713e
00000040: e021 f4be f3e0 d2bd f1cd bdbe 3341 a7bc
00000050: 9c60 68be 9a34 ac3e 0ca6 46bd 81df a23e
00000060: 36b0 513e e231 4c3e 0080 863e d381 423d
00000070: 2961 03be f595 84bd 9bf5 f13d 15fc d0bd
00000080: 4531 6c3e 1ca1 2b3d f97b c43d b157 f3be
00000090: 6e21 883e 482d 0e3e fb63 f2be 116f 81be
000000a0: 94c5 883d bfe3 a9bd fc97 d2be 08d5 56be
000000b0: 69b5 bbbe 0f26 7fbe 9cec 833d b62d 993e
000000c0: b045 863e 84ba e43d 12b0 80be 59d2 e4bd
000000d0: cc42 12be 7eac e93e abeb e63d e846 eebd
000000e0: e88f 913d c544 36be b152 b33e 5544 d53d
000000f0: a946 39be 2c84 f53d cf12 a13d 2dc5 c63e

bn2.running_var f4 [64]
0.118610255 0.14295503 0.092951596 0.26925752 0.11857416 0.17795314 0.2869154 0.119697735
0.14055152 0.12865369 0.30437753 0.22574343 0.31786293 0.32193604 0.068125024 0.10302819
0.1392767 0.15782389 0.41120017 0.11773196 0.20151377 0.20634298 0.07181807 0.067427374
0.20897396 0.2769738 0.14222373 0.27940065 0.15752396 0.1827095 0.11577277 0.2617012
0.07003433 0.09385635 0.17828776 0.09509559 0.17931017 0.24152583 0.15786746 0.03773523
0.08628798 0.14268383 0.24080469 0.097364195 0.09484035 0.30672574 0.12335175 0.10184639
0.17802903 0.2785635 0.24226864 0.12907343 0.18881671 0.34237444 0.17674255 0.440261
0.13890755 0.17420195 0.17612542 0.24494733 0.06196633 0.12676573 0.22892578 0.124353014
00000000: efe9 f23d ce62 123e 685d be3d 1fdc 893e
00000010: 02d7 f23d 5939 363e 93e6 923e 1624 f53d
00000020: bdec 0f3e cbbd 033e 5fd7 9b3e 4929 673e
00000030: eebe a23e cdd4 a43e 2285 8b3d 7200 d33d
00000040: 8d9e 0e3e 969c 213e d488 d23e 741d f13d
00000050: a059 4e3e 934b 533e 5a15 933d 5d17 8a3d
00000060: 45fd 553e 83cf 8d3e 19a3 113e 9a0d 8f3e
00000070: f64d 213e 3318 3b3e 461a ed3d b3fd 853e
00000080: 296e 8f3d c237 c03d 1191 363e 7ac1 c23d
00000090: 169d 373e 8c52 773e 02a8 213e 4290 1a3d
000000a0: c1b7 b03d b61b 123e 8195 763e e166 c73d
000000b0: a83b c23d 280b 9d3e d89f fc3d d794 d03d
000000c0: 3e4d 363e e09f 8e3e 4515 783e d32b 043e
000000d0: 2b59 413e b44b af3e 00fc 343e e469 e13e
000000e0: c83d 0e3e ff61 323e 395a 343e 79d3 7a3e
000000f0: 68d0 7d3d e0ce 013e 856b 6a3e cbac fe3d

conv3.weight f4 [128, 64, 5]
-0.014817469 -0.017680107 -0.046382587 0.04333898 -0.033738676 -0.040645566 -0.0014003786 0.003035781
-0.0012174388 -0.03562695 0.044650942 0.009230161 -0.03571775 -0.03790257 -0.038738355 0.012825173
0.029507734 0.06474583 0.03913691 0.05102463 0.043886792 -0.006641476 0.045586485 0.01684841
0.03906281 -0.012957299 -0.0154207805 0.046472922 -0.0070712683 0.04865916 0.045734957 -0.04407797
-0.038457908 0.018000282 -0.011614144 -0.05722486 -0.030723765 0.022953207 -0.06462316 -0.012097988
0.0075321165 0.05377682 -0.019353021 -0.02840624 -0.012640159 -0.007088905 0.055447012 -0.030081231
0.04292116 -0.04230759 0.029550413 -0.034456525 0.043587733 -0.040357105 -0.04253783 -0.013092777
-0.024547685 0.012502387 -0.001420193 0.02576204 -0.046279695 0.04275503 0.011611405 0.027222395
-0.0546688 0.009681463 -0.03598538 -0.03274895 0.018947912 0.025713028 0.033186603 0.013766892
0.061946556 -0.014974934 -0.01718491 0.020166626 -0.026319668 0.041798193 -0.022940421 -0.042491995
-0.01658729 -0.016256023 0.0037593467 -0.015081476 0.0022490092 -0.013720573 -0.036642443 -0.007156962
-0.036267962 0.02910092 -0.0116149215 0.049850706 0.057634883 0.046378694 -0.02529786 0.04213916
-0.056308117 -0.0026806265 0.05484732 -0.020126456 -0.0026650983 0.054844763 -0.012165631 -0.026021449
-0.037567873 -0.009781742 -0.040375818 -0.011443002 -0.060924035 -0.05830274 0.026120586 -0.011825475
-0.037780955 -0.041978974 0.029766886 -0.038338017 -0.038501877 0.0032600511 -0.02758675 0.012960442
0.03919065 0.034322128 -0.0013955642 -0.056925375 0.030451212 0.052363984 -0.024910329 0.031451426
0.02083375 0.010154115 0.0077123344 0.035244968 -0.008438229 -0.036878098 0.061448935 0.04152073
6.132168e-05 0.00066551124 0.011251215 0.035331335 0.03925408 -0.028632404 -0.042252026 -0.025852136
-0.029692981 0.00608529 0.014790232 -0.029430347 0.035212014 -0.033557136 -0.0038486798 -0.01276287
-0.03176366 -0.029957134 -0.061798267 -0.044869475 0.025342338 0.02399248 0.013811484 -0.04370562
-0.027088007 -0.015628196 -0.035203468 -0.010444566 0.014324698 0.04524085 -0.06490785 0.06074699
-0.048011452 0.0001952608 -0.0012914105 -0.0184276 -0.033279557 0.04761115 -0.04869619 -0.043302033
-0.014962275 -0.040314823 -0.014241496 0.010916402 -0.00409177 -0.014804805 -0.0042202827 0.03040333
0.032056876 0.03951466 -0.019352276 0.019344335 -0.017578218 0.030472072 -0.014161553 -0.057363786
0.013897473 -0.024323914 0.025622873 -0.028954307 -0.008327161 -0.060530536 -0.021739261 -0.01701702
0.0054134163 -0.00980923 -0.040720657 0.056007396 0.022469353 0.02206623 0.020384721 0.011781422
0.03161607 0.022781663 -0.05031159 -0.0060575143 -0.04634082 0.014263856 0.0065361797 -0.027382586
-0.00083682226 -0.015786465 -0.062360488 0.023386799 -0.011191279 0.0058152424 0.017636368 -0.02124446
0.017176395 -0.010243948 -0.013054326 0.02403458 -0.039958518 -0.013887648 0.015535645 0.015393951
-0.034064792 -0.04000371 0.03776202 -0.004626461 0.03991849 0.009190508 -0.058581725 0.02172234
-0.0073813293 0.02162051 -0.04013933 -0.024309454 0.009460457 0.012670275 -0.015001554 0.0066699996
0.01939953 -0.024920013 0.021197753 0.00934936 -0.04953226 -0.03622261 0.039421424 0.031878434
00000000: f8c4 72bc dfd5 90bc abfb 3dbd 3784 313d
00000010: 9131 0abd f77b 26bd e98c b7ba f4f3 463b
00000020: 7892 9fba 91ed 11bd e8e3 363d 1a3a 173c
00000030: c74c 12bd ba3f 1bbd 1cac 1ebd ad20 523c
00000040: 34ba f13c 7699 843d 064e 203d 34ff 503d
00000050: a3c2 333d bda0 d9bb e5b8 3a3d ad05 8a3c
00000060: 5300 203d da4a 54bc 71a7 7cbc 645a 3e3d
00000070: 19b6 e7bb d44e 473d 9454 3b3d 1a8b 34bd
00000080: 0a86 1dbd 5475 933c 4049 3ebc 9d64 6abd
00000090: 68b0 fbbc 5d08 bc3c 2659 84bd a436 46bc
000000a0: f9cf f63b 1545 5c3d 3a8a 9ebc 34b4 e8bc
000000b0: ab18 4fbc 0c4a e8bb 681c 633d ea6c f6bc
000000c0: 19ce 2f3d b94a 2dbd b513 f23c 4922 0dbd
000000d0: 0d89 323d 7e4d 25bd 263c 2ebd 1683 56bc
000000e0: 3a18 c9bc d0d6 4c3c c525 baba ea0a d33c
000000f0: c78f 3dbd e61f 2f3d c33d 3e3c 8001 df3c
00000100: 64ec 5fbd 009f 1e3c 6865 13bd c323 06bd
00000110: a738 9b3c 21a4 d23c adee 073d 888e 613c
00000120: acbb 7d3d 6d59 75bc 5ec7 8cbc 7b34 a53c
00000130: 589c d7bc 9534 2b3d 8ded bbbc 160c 2ebd
00000140: 12e2 87bc 5a2b 85bc 5f5f 763b 4c18 77bc
00000150: 1d64 133b 41cc 60bc 6316 16bd f384 eabb
00000160: b78d 14bd 0d65 ee3c 834c 3ebc 4130 4c3d
00000170: 8e12 6c3d 96f7 3d3d 753d cfbc 1d9a 2c3d
00000180: 57a3 66bd 73ad 2fbb 95a7 603d 3de0 a4bc
00000190: eea8 2ebb e7a4 603d 5b52 47bc ef2a d5bc
000001a0: c5e0 19bd 9943 20bc 1d61 25bd 6e7b 3bbc
000001b0: 7b8b 79bd dbce 6ebd d7fa d53c a3bf 41bc
000001c0: 34c0 1abd 25f2 2bbd afd9 f33c 5308 1dbd
000001d0: 25b4 1dbd 95a6 553b 9cfd e1bc 0958 543c
000001e0: 6086 203d 5c95 0c3d 5deb b6ba 952a 69bd
000001f0: d274 f93c 9e7b 563d bf10 ccbc 36d3 003d
00000200: 8aab aa3c 725d 263c c0b7 fc3b 075d 103d
00000210: 7f40 0abc 7d0d 17bd e1b1 7b3d a411 2a3d
00000220: d499 8038 b475 2e3a 0457 383c 97b7 103d
00000230: e3c8 203d 818e eabc 7610 2dbd dcc7 d3bc
00000240: b23e f3bc 1d67 c73b bb52 723c e917 f1bc
00000250: 793a 103d 3573 09bd 223a 7cbb 5b1b 51bc
00000260: 9d1a 02bd aa68 f5bc 2e20 7dbd 0ec9 37bd
00000270: bc9a cf3c e18b c43c 9049 623c aa04 33bd
00000280: abe7 ddbc b406 80bc 8331 10bd af1f 2bbc
00000290: 23b2 6a3c 784e 393d 68ee 84bd d6d1 783d
000002a0: a8a7 44bd ecbe 4c39 8c44 a9ba 7af5 96bc
000002b0: 2550 08bd e903 433d a875 47bd 795d 31bd
000002c0: 5424 75bc 2821 25bd 2a55 69bc b5da 323c
000002d0: 4114 86bb da8f 72bc 4c4a 8abb 6810 f93c
000002e0: 124e 033d 20da 213d aa88 9ebc 0378 9e3c
000002f0: 3200 90bc 91a0 f93c dc05 68bc 4af6 6abd
00000300: 3ab2 633c f242 c7bc 0fe7 d13c 9531 edbc
00000310: a56e 08bc deee 77bd 8916 b2bc 4767 8bbc
00000320: 0763 b13b e5b6 20bc b4ca 26bd 0368 653d
00000330: a611 b83c 3dc4 b43c dcfd a63c de06 413c
00000340: da7f 013d 9ca0 ba3c 8713 4ebd 1d7e c6bb
00000350: dfcf 3dbd f3b2 693c 732d d63b 7251 e0bc
00000360: 315e 5bba 9e52 81bc b66d 7fbd ac95 bf3c
00000370: a05b 37bc ca8d be3b 257a 903c dd08 aebc
00000380: 83b5 8c3c 3bd6 27bc d0e1 55bc 2be4 c43c
00000390: 8bab 23bd 0489 63bc 3889 7e3c e936 7c3c
000003a0: 8687 0bbd eeda 23bd 59ac 1a3d 9199 97bb
000003b0: 9281 233d c993 163c 64f3 6fbd 0cf3 b13c
000003c0: 14df f1bb 7f1d b13c 2369 24bd 9f24 c7bc
000003d0: 0800 1b3c fc96 4f3c 14c9 75bc 0390 da3b
000003e0: c3eb 9e3c 0e25 ccbc e9a6 ad3c 0f2e 193c
000003f0: 57e2 4abd 295e 14bd 5c78 213d f692 023d

conv3.bias f4 [128]
0.041476514 -0.05449188 -0.002394102 -0.0072879377 0.045915224 -0.017051691 -0.04986933 -0.03835251
0.025739588 0.028944617 -0.02655789 0.026006777 -0.04135838 0.016238095 0.019574143 -0.054253466
-0.041902818 0.010255329 -0.024571486 -0.018096048 -0.0295031 -0.014690285 0.03299072 0.044816937
0.029690418 0.054143436 0.006438054 0.0034963964 0.053148076 -0.014083943 0.02981792 -0.019516991
0.02260572 0.04776338 0.03406592 -0.024980448 -0.011921304 0.048484582 0.019411108 0.027345935
0.05155944 -0.053574752 0.016465072 0.0344896 0.049327686 0.05139009 0.028777072 0.039987966
0.02305727 -0.012143971 -0.01003596 0.029635146 0.0494723 0.035817496 -0.026828459 0.010517449
0.048910633 -0.052346088 0.045794245 -0.0010032171 -0.007861621 0.03986455 0.04335244 0.024619995
0.055804256 -0.008822927 0.050198812 -0.053759277 0.011285365 -0.009376529 0.052953396 0.02935525
-0.023127796 -0.01779229 0.008594046 0.034375194 -0.023567956 0.02352123 -0.036223665 -0.0053702774
0.012013767 0.02996674 0.03860913 0.018133948 -0.00956931 0.028854804 -0.034074876 -0.036249377
0.038150806 0.04078386 -0.051979747 -0.039530702 0.007164317 -0.040437963 0.007328391 -0.012920872
0.01884772 0.008330045 -0.012929735 -0.007857094 -0.00016649716 -0.012002469 0.005245381 0.04843129
0.027821146 -0.045657173 0.028025184 -0.033165023 0.00024559183 -0.049765762 -0.0069643916 -0.02738557
-0.027492067 -0.04191574 -0.03056586 -0.005534517 -0.0072875563 -0.036401525 0.027815413 -0.044726685
0.045841888 0.010409015 -0.03794383 0.004929573 0.012841871 -0.040531006 -0.041285113 0.028743897
00000000: 47e3 293d e132 5fbd 5ee6 1cbb a7cf eebb
00000010: 9a11 3c3d fdaf 8bbc c843 4cbd 8617 1dbd
00000020: d4db d23c 431d ed3c ef8f d9bc 2a0c d53c
00000030: 6867 29bd c105 853c f459 a03c e238 5ebd
00000040: 4aa2 2bbd f805 283c 244a c9bc 2a3e 94bc
00000050: 7cb0 f1bc 85af 70bc 4721 073d f791 373d
00000060: 5239 f33c 82c5 5d3d 50f6 d23b cc23 653b
00000070: ccb1 593d 57c0 66bc b644 f43c 19e2 9fbc
00000080: a22f b93c 89a3 433d b588 0b3d cca3 ccbc
00000090: 9351 43bc c597 463d 0b04 9f3c 9504 e03c
000000a0: fe2f 533d 3371 5bbd c2e1 863c f844 0d3d
000000b0: d40b 4a3d 6a7e 523d e5bd eb3c 6cca 233d
000000c0: 9ae2 bc3c 82f7 46bc de6d 24bc 68c5 f23c
000000d0: 77a3 4a3d 5eb5 123d 5bc7 dbbc 6151 2c3c
000000e0: 8456 483d da68 56bd bf92 3b3d 617e 83ba
000000f0: 07ce 00bc 0349 233d 5492 313d dfaf c93c
00000100: 0193 643d 0a8e 10bc 459d 4d3d b032 5cbd
00000110: 40e6 383c 03a0 19bc a9e5 583d 6c7a f03c
00000120: 8176 bdbc 23c1 91bc 0bce 0c3c 01cd 0c3d
00000130: 9611 c1bc 98af c03c 445f 14bd 27f9 afbb
00000140: 64d5 443c cf7c f53c 9b24 1e3d a58d 943c
00000150: 98c8 1cbc e960 ec3c 1992 0bbd 3a7a 14bd
00000160: 0544 1c3d fa0c 273d b7e8 54bd f2ea 21bd
00000170: a6c2 ea3b 47a2 25bd 0023 f03b 11b2 53bc
00000180: 8966 9a3c be7a 083c 3dd7 53bc 0abb 00bc
00000190: be95 2eb9 01a6 44bc 72e1 ab3b e35f 463d
000001a0: 2ce9 e33c 0403 3bbd 1295 e53c 0cd8 07bd
000001b0: c7c2 8039 2fd7 4bbd 8d35 e4bb b457 e0bc
000001c0: 0b37 e1bc d7af 2bbd 4165 fabc e55a b5bb
000001d0: 74cc eebb c419 15bd 26dd e33c 5433 37bd
000001e0: b4c4 3b3d 938a 2a3c fd6a 1bbd 4188 a13b
000001f0: b666 523c d703 26bd 941a 29bd 5278 eb3c

bn3.weight f4 [128]
0.99641365 0.9874121 1.0000086 1.0043162 1.0090512 0.99835134 1.017467 1.0170568
1.0052855 1.008434 1.0051099 0.9931624 0.99446005 0.98943806 0.9971556 0.99262595
0.98707324 1.0204577 0.99795 1.0022935 0.99326235 1.0022181 1.014226 0.9946298
0.99661046 0.9852445 1.0057038 0.9815867 1.0154649 1.0104889 0.9909928 0.9940768
0.9952986 1.0140892 0.98262423 1.012474 1.0009784 0.9884228 0.99207634 0.9922596
0.99449694 1.0073969 1.0014677 0.98537946 1.0187495 1.0058343 0.98669654 1.0123187
1.0087144 1.0110067 1.0128205 0.98933923 0.98379874 1.0092211 0.9962472 0.99220055
0.98548555 0.9897085 0.9994305 1.0112325 0.99902344 0.9901313 0.9943366 1.0008211
0.9928148 1.0016209 1.0023806 0.9822787 1.0107635 1.0151762 1.0000688 1.0017289
0.9991219 1.015838 1.0050315 0.99529463 1.0198829 0.9873093 1.0036708 0.99584645
1.0105988 0.98716253 0.99989206 1.0024241 0.9866174 1.00639 0.99141526 1.013672
0.9864457 1.0000943 1.000426 0.99184924 1.0166012 0.992047 0.9872241 1.0106881
0.9843699 1.0098338 1.007487 0.9874213 0.98740524 0.9933381 1.003964 0.9836039
1.0090822 0.9804949 0.9894589 0.9845108 0.9870093 0.9853094 0.9838008 0.99621767
0.98340106 1.0118672 0.987403 1.008303 0.9818401 0.9830682 0.98551494 1.0124105
1.0038784 0.9860787 0.98685503 1.0046048 1.0124171 1.0074122 0.9895858 0.99317795
00000000: f714 7f3f 0ac7 7c3f 4800 803f 6f8d 803f
00000010: 9728 813f f493 7f3f 5c3c 823f eb2e 823f
00000020: 32ad 803f 5e14 813f 71a7 803f e43f 7e3f
00000030: ef94 7e3f d04b 7d3f 9745 7f3f bc1c 7e3f
00000040: d5b0 7c3f 5c9e 823f a779 7f3f 274b 803f
00000050: 7146 7e3f af48 803f 28d2 813f 0fa0 7e3f
00000060: dd21 7f3f fc38 7c3f e7ba 803f 4449 7b3f
00000070: c1fa 813f b357 813f b4b1 7d3f d17b 7e3f
00000080: e4cb 7e3f adcd 813f 438d 7b3f bf98 813f
00000090: 0f20 803f 4709 7d3f b7f8 7d3f ba04 7e3f
000000a0: 5a97 7e3f 62f2 803f 1830 803f d441 7c3f
000000b0: 6266 823f 2ebf 803f 2598 7c3f a993 813f
000000c0: 8e1d 813f ab68 813f 1aa4 813f 5645 7d3f
000000d0: 3cda 7b3f 282e 813f 0e0a 7f3f db00 7e3f
000000e0: c848 7c3f 895d 7d3f adda 7f3f 1170 813f
000000f0: 00c0 7f3f 3f79 7d3f d88c 7e3f e81a 803f
00000100: 1c29 7e3f 1d35 803f 024e 803f 9e76 7b3f
00000110: b360 813f 4bf1 813f 4102 803f a738 803f
00000120: 74c6 7f3f fb06 823f dfa4 803f a1cb 7e3f
00000130: 868b 823f 4dc0 7c3f 4978 803f cbef 7e3f
00000140: 4d5b 813f afb6 7c3f edf8 7f3f 6f4f 803f
00000150: f592 7c3f 63d1 803f 64cd 7d3f 01c0 813f
00000160: b587 7c3f 1703 803f f60d 803f d5e9 7d3f
00000170: fd1f 823f cbf6 7d3f b8ba 7c3f 3a5e 813f
00000180: aaff 7b3f 3c42 813f 56f5 803f a4c7 7c3f
00000190: 97c6 7c3f 684b 7e3f e481 803f 77cd 7b3f
000001a0: 9b29 813f b701 7b3f 2e4d 7d3f e608 7c3f
000001b0: a4ac 7c3f 3d3d 7c3f 5fda 7b3f 1f08 7f3f
000001c0: 2cc0 7b3f dd84 813f 71c6 7c3f 1310 813f
000001d0: df59 7b3f 5caa 7b3f b54a 7c3f ab96 813f
000001e0: 167f 803f a76f 7c3f 88a2 7c3f e496 803f
000001f0: e296 813f e2f2 803f 7f55 7d3f e940 7e3f

bn3.bias f4 [128]
0.0045870626 -0.016332591 0.0046422346 0.0037761694 0.01194565 0.0037841485 0.011278177 0.011038891
0.014031604 0.023144033 0.008236882 -0.0073574022 0.007448668 -0.007959382 -0.0058240686 0.0052535078
-0.010802159 0.02532189 0.012917253 0.012393579 -0.002883606 0.000937475 0.018205615 0.0016948332
0.01034637 -0.010757801 0.0023582263 -0.016069872 0.011106716 0.012796239 0.005071901 -0.001569283
-0.0012025231 0.022681303 -0.011696739 0.013750728 0.0060059726 -0.009073486 0.005093709 0.0054113385
0.00022127645 0.0010698303 0.007329056 -0.0088669155 -0.004651806 0.009983538 -0.002970725 0.015611898
0.0077144457 0.012116256 0.0060652024 -0.004140128 -0.012252472 0.015342817 0.0023998267 0.0005795865
-0.0071432116 -0.004307008 0.008739396 0.012448803 0.007570992 0.002239984 -0.0059209587 0.005369448
0.0009797327 0.0049291886 0.00234071 -0.0137790665 0.019345744 0.017942479 0.0038688919 0.0001442066
0.0018260744 0.012263666 0.01932168 0.0046432726 0.009681252 0.001886929 0.0002073774 -0.001374629
0.014797206 -0.0074916743 0.0044626403 0.017261539 -0.005465476 0.0029184497 -0.0035574364 0.015673354
-0.012521357 0.0030732325 0.010964729 -0.007514138 0.015385345 -0.009247301 -0.001200392 0.008926488
-0.010049143 0.005935556 0.013327101 -0.008503018 -0.009110782 -0.007167854 0.0036608167 -0.008930461
0.0008285692 -0.01419155 -0.007180849 -0.014441643 -0.0024982542 -0.013118549 -0.0034850896 0.0065025375
0.0053244964 0.011815411 -0.0072841733 0.011689605 -0.0067032026 -0.00679073 -0.0012565637 -0.0020648008
0.002510305 -0.0021313704 -0.008328692 0.0030805469 -0.00023158344 0.008467667 -0.0059437067 0.0065394063
00000000: 124f 963b edcb 85bc e31d 983b 9c79 773b
00000010: b0b7 433c 7aff 773b 1ac8 383c 77dc 343c
00000020: d0e4 653c 8e98 bd3c fdf3 063c 5d16 f1bb
00000030: f513 f43b 1168 02bc d4d7 bebb 9e25 ac3b
00000040: 8afb 30bc da6f cf3c e3a2 533c 700e 4b3c
00000050: e1fa 3cbb e2c0 753a f123 953c 2a25 de3a
00000060: d283 293c 7d41 30bc 798c 1a3b f7a4 83bc
00000070: f1f8 353c 51a7 513c 3032 a63b 66b0 cdba
00000080: fb9d 9dba 24ce b93c aea3 3fbc bc4a 613c
00000090: c0cd c43b f5a8 14bc 21e9 a63b 9951 b13b
000000a0: 7206 6839 8c39 8c3a 9428 f03b 8a46 11bc
000000b0: 2d6e 98bb fe91 233c 7fb0 42bb 0cc9 7f3c
000000c0: 76c9 fc3b 4383 463c 9bbe c63b e9a9 87bb
000000d0: 98be 48bc 7060 7b3c 6946 1d3b 64ef 173a
000000e0: 9a11 eabb cd21 8dbb af2f 0f3c 10f6 4b3c
000000f0: 1616 f83b b2cc 123b 9a04 c2bb 32f2 af3b
00000100: 606a 803a 0885 a13b 9966 193b 98c1 61bc
00000110: f77a 9e3c 1bfc 923c 3c8d 7d3b 2a36 1739
00000120: e458 ef3a 8bed 483c 8048 9e3c 9826 983b
00000130: 1d9e 1e3c d552 f73a 7273 5939 e52c b4ba
00000140: fb6f 723c b87c f5bb 573b 923b 1268 8d3c
00000150: bc17 b3bb 7643 3f3b e123 69bb 6865 803c
00000160: 6126 4dbc 4968 493b 68a5 333c 2839 f6bb
00000170: d012 7c3c fe81 17bc 7956 9dba 6840 123c
00000180: 29a5 24bc 0d7f c23b ea59 5a3c 3e50 0bbc
00000190: 6445 15bc 51e0 eabb 50ea 6f3b 1151 12bc
000001a0: 5634 593a ad83 68bc 544d ebbb a49c 6cbc
000001b0: c0b9 23bb 2fef 56bc 1a66 64bb 3d13 d53b
000001c0: 1d79 ae3b 6d95 413c 13b0 eebb c285 3f3c
000001d0: 8aa6 dbbb c684 debb 48b3 a4ba 9c51 07bb
000001e0: ee83 243b 76ae 0bbb 1175 08bc 00e3 493b
000001f0: 35d5 72b9 f8bb 0a3c 6dc3 c2bb 8448 d63b

bn3.running_mean f4 [128]
-0.37177926 -0.7584567 -0.01986284 -0.38864475 -0.39898756 -0.2567745 -0.6941016 -0.54069495
-0.16516748 0.24248058 -0.17720887 -0.25466737 -0.4072243 0.37908643 -0.3057848 -0.34663096
-0.47055537 0.7850366 0.34898424 0.21710476 0.40160942 0.23133281 -0.23159496 -0.5086906
-0.1634894 0.25676402 0.08786583 0.31655782 -0.24890819 -0.4563505 -0.6357032 0.65921426
-0.4321407 -0.034886222 0.53875995 -0.33951765 -0.32895836 -0.021549616 -0.26081312 -0.5457109
0.35990313 -0.6411239 -0.12931484 0.11451568 -0.34780735 0.17891979 0.055150464 -0.5853071
-0.7939171 -0.4280241 -0.07356787 -0.03688164 -0.22439177 0.053041127 0.18095994 -0.14542337
0.33357668 -0.016429808 0.21605222 -0.47747284 -0.16787568 -0.30662563 -0.27056637 -0.567295
-0.21691534 -0.21537586 -0.5083747 -0.049833156 0.1136972 -0.012889088 -0.1805901 -0.42582473
-0.16657138 -0.6042996 0.336922 -0.079662435 -0.6371751 -0.0877327 0.24065003 0.24760969
0.5217161 -0.68687785 0.30967084 -0.53271353 -0.047187448 -0.12493709 0.36410362 -0.31633496
0.3249946 0.43491948 -0.16559376 0.24756119 -0.7549371 -0.29024073 0.2636795 0.3799657
-0.5327519 0.040438637 0.2607327 0.55467975 0.36031035 -0.10519274 -0.32214838 0.26305354
-0.11865671 -0.7541076 0.42469478 -0.16786958 -0.31296045 0.0868604 -0.3960702 0.4725651
-0.20975854 -0.60205185 -0.045075912 -0.22732446 -0.3944325 -0.7817821 -0.4084155 -0.013575208
0.26158875 0.16959803 0.20047906 0.5856174 -0.47572416 -0.3862428 -0.36906058 0.29080153
00000000: da59 bebe 382a 42bf 65b7 a2bc 72fc c6be
00000010: 1948 ccbe f277 83be a4b0 31bf fc6a 0abf
00000020: aa21 29be d44c 783e 3e76 35be c363 82be
00000030: b47f d0be 9e17 c23e d38f 9cbe 9d79 b1be
00000040: a2ec f0be 29f8 483f 10ae b23e b650 5e3e
00000050: c09f cd3e 82e2 6c3e 3b27 6dbe 8c39 02bf
00000060: c469 27be 9376 833e 00f3 b33d de13 a23e
00000070: cae1 7ebe c6a6 e9be 72bd 22bf 44c2 283f
00000080: 8c41 ddbe dbe4 0ebd 2cec 093f 42d5 adbe
00000090: 3b6d a8be d288 b0bc 4c89 85be b6b3 0bbf
000000a0: 3945 b83e b220 24bf 1c6b 04be 3287 ea3d
000000b0: ce13 b2be c036 373e 74e5 613d b0d6 15bf
000000c0: 273e 4bbf fa25 dbbe c0aa 96bd 3411 17bd
000000d0: f5c6 65be a741 593d 904d 393e dde9 14be
000000e0: 90ca aa3e ce97 86bc cb3c 5d3e 5277 f4be
000000f0: 9ae7 2bbe 09fe 9cbe ad87 8abe 3f3a 11bf
00000100: 0e1f 5ebe 7d8b 5cbe d824 02bf da1d 4cbd
00000110: 14da e83d c12c 53bc 9cec 38be b305 dabe
00000120: b091 2abe 61b3 1abf 0a81 ac3e 0f26 a3bd
00000130: e81d 23bf 34ad b3bd f66c 763e 658d 7d3e
00000140: 308f 053f 3ad7 2fbf 2d8d 9e3e ea5f 08bf
00000150: a047 41bd 04df ffbd ca6b ba3e a8f6 a1be
00000160: b165 a63e c4ad de3e 6991 29be ae80 7d3e
00000170: 8f43 41bf 6f9a 94be 0001 873e dd8a c23e
00000180: 6e62 08bf fca2 253d c27e 853e 7eff 0d3f
00000190: 997a b83e 4b6f d7bd a2f0 a4be f4ae 863e
000001a0: 4a02 f3bd 320d 41bf 9871 d93e 01e6 2bbe
000001b0: 5a3c a0be dee3 b13d b7c9 cabe 0ef4 f13e
000001c0: f1ca 56be 1220 1abf 85a1 38bd bec7 68be
000001d0: 0ef3 c9be df22 48bf d61b d1be 8d6a 5ebc
000001e0: f6ee 853e 1bab 2d3e 624a 4d3e 06eb 153f
000001f0: 1e92 f3be 9ec1 c5be 82f5 bcbe f0e3 943e

bn3.running_var f4 [128]
0.28668013 0.46885094 0.6247914 0.6779302 0.63053703 0.49284497 0.70659304 0.31644517
0.30846602 0.5575127 0.29320255 0.49613804 0.54409456 0.79597163 0.3616819 0.79855835
0.3618076 0.5452742 0.81656 0.511974 0.46799272 0.5786365 0.600345 0.5216168
0.8108412 0.36774394 0.17114311 0.31586134 0.6032704 0.33366898 1.0436409 0.61788327
0.5666398 0.42273405 0.30141434 0.510341 0.38745916 0.3001883 0.4859917 0.5257304
0.47452796 0.4633804 0.6131899 0.5778546 0.3841194 0.22625862 0.4030078 0.84173745
0.55977756 0.48997924 0.79726046 0.5197058 0.44164068 0.5957308 0.27567318 0.41841495
0.31531483 0.3918057 0.28176513 0.42675307 0.67009497 0.5154498 0.4199039 0.32927442
0.6139971 0.61147916 0.19349657 0.4855343 0.30257207 0.43747604 0.61585385 0.33147976
0.5096189 0.48438665 0.6343133 0.3775526 0.31863624 0.6961238 0.24995221 0.99210477
0.67068267 0.54236704 0.54698837 0.4035679 0.30653962 0.81531477 0.680006 0.58419436
0.3625543 0.41179854 0.35080123 0.42702132 0.52323264 0.35796708 0.3500664 0.5580448
0.51489514 0.49398556 0.72441924 0.53079325 0.35643366 0.6636093 0.45272017 0.5634228
0.5087786 0.30112374 0.49689752 0.35549864 0.18734822 0.78453326 0.41568348 0.6617361
0.3737121 1.2731771 0.46506208 0.87878305 0.32922685 0.63840586 0.36841297 0.46791744
0.743334 0.3229799 0.5089952 0.18203947 0.29997724 0.49114022 0.7594953 0.16221285
00000000: bdc7 923e 3b0d f03e 54f2 1f3f d58c 2d3f
00000010: e06a 213f 2d56 fc3e 48e3 343f 1a05 a23e
00000020: 42ef 9d3e 27b9 0e3f a51e 963e ce05 fe3e
00000030: c849 0b3f ccc4 4b3f 5f2e b93e 526e 4c3f
00000040: d93e b93e 1797 0b3f 130a 513f ba10 033f
00000050: be9c ef3e 8621 143f 36b0 193f ae88 053f
00000060: 4a93 4f3f ef48 bc3e 2440 2f3e 94b8 a13e
00000070: ee6f 1a3f a9d6 aa3e 0696 853f 992d 1e3f
00000080: 4e0f 113f 9970 d83e fb52 9a3e b5a5 023f
00000090: 0c61 c63e 48b2 993e e7d3 f83e 4496 063f
000000a0: 54f5 f23e 3240 ed3e 03fa 1c3f 47ee 133f
000000b0: 4cab c43e 57b0 673e 0a57 ce3e 1b7c 573f
000000c0: 954d 0f3f 8fde fa3e 4319 4c3f 700b 053f
000000d0: ba1e e23e d081 183f 0925 8d3e 7c3a d63e
000000e0: f270 a13e c29a c83e 8543 903e 617f da3e
000000f0: 588b 2b3f 85f4 033f a5fd d63e a896 a83e
00000100: ea2e 1d3f e689 1c3f f723 463e f497 f83e
00000110: baea 9a3e dcfc df3e 99a8 1d3f b7b7 a93e
00000120: 6276 023f 8701 f83e 5b62 223f 934e c13e
00000130: 4a24 a33e 2b35 323f 79f3 7f3e 94fa 7d3f
00000140: dcb1 2b3f 91d8 0a3f 6e07 0c3f 74a0 ce3e
00000150: c3f2 9c3e 78b8 503f e014 2e3f c38d 153f
00000160: b8a0 b93e 42d7 d23e 389c b33e 8aa2 da3e
00000170: 93f2 053f 7647 b73e e73b b33e 06dc 0e3f
00000180: 2bd0 033f adeb fc3e 8a73 393f 11e2 073f
00000190: 797e b63e 4de2 293f f0ca e73e 7a3c 103f
000001a0: 503f 023f e42c 9a3e 5a69 fe3e eb03 b63e
000001b0: 36d8 3f3e 2cd7 483f 77d4 d43e 8967 293f
000001c0: 3157 bf3e 78f7 a23f 9e1c ee3e edf7 603f
000001d0: 6c90 a83e 916e 233f a0a0 bc3e e092 ef3e
000001e0: 234b 3e3f 9f5d a53e 824d 023f 8e68 3a3e
000001f0: 9e96 993e bb76 fb3e 496e 423f 201b 263e
